trained_models/best_flow.pt (torch, 15456 bytes, 3 tensors)

weight f4 [32, 32]
0.14366941 0.054657668 -0.57861066 0.3674085 -0.43882167 0.5605553 -0.065210514 0.16816476
0.2634541 -0.655578 -0.14034282 -0.49599895 0.5317383 0.34507048 -0.33895054 -0.9362543
0.62788403 -0.45513237 -0.8573797 -0.9817775 0.034796454 -0.06585059 0.8942527 0.5132408
0.5978973 -0.67896754 0.9333107 0.41264403 -0.43638718 -0.6713543 -0.048823565 -0.31860927
-0.33701307 0.010731122 0.28020275 -0.6313271 0.25755098 -0.30673498 0.06601038 0.1921734
-0.3616047 0.66086435 0.037106957 0.40112644 -0.93682164 -0.47085527 0.43165573 1.1107901
-0.64400685 0.44188136 0.92947435 1.0499926 0.1475792 0.19839339 -0.5430572 -0.34082684
-0.5009162 0.42829648 -0.7945727 -0.5831006 0.2862187 0.687447 -0.101132706 0.46653923
0.3715328 -0.17457537 -0.36856985 0.36229512 -0.27279124 0.47395587 -0.12241061 -0.24088997
0.6275425 -0.6685185 0.26712492 -0.47618583 0.96711963 0.061144225 -0.32767904 -0.9769386
0.2698984 -0.18307236 -0.78315467 -1.0018513 -0.10491792 -0.1661431 0.36749235 0.050512478
0.42651463 -0.49136055 0.61943805 0.51242876 0.08273586 -0.5829492 -0.1840787 -0.35075685
-0.15744337 0.18448587 0.23718975 -0.5540391 0.5365435 -0.280296 -0.13194431 0.13300017
-0.6474436 0.84624404 -0.170216 0.5192387 -0.98414093 -0.2831503 0.3123861 1.0172144
-0.6489125 0.50156 0.9836973 0.6755372 0.084079735 0.16758864 -0.4414218 -0.087119624
-0.33181223 0.45933777 -0.6651863 -0.33178216 -0.067296974 0.5101668 -0.03021296 0.34022993
-0.16420893 -0.013615885 0.2049203 -0.54822034 0.3365009 -0.34831813 0.17635037 0.06542219
-0.32305077 0.5651774 -0.041613538 0.65310717 -0.38322142 -0.23654814 0.40863714 0.7892904
-0.4176436 0.30191717 0.8619729 0.7606011 0.014927964 -0.08165423 -0.87646884 -0.42292285
-0.48583797 0.59459597 -0.45406428 -0.6358782 0.2196298 0.4171606 -0.026418565 0.36037248
0.29658774 -0.26371974 -0.6067719 0.24194698 -0.30706292 0.47997236 -0.030221092 -0.061799668
0.23229885 -0.87658983 0.12748694 -0.602607 1.020755 0.45753103 -0.49149334 -0.77810496
0.6594557 -0.5341507 -0.6773601 -1.0639865 -0.18942802 -0.23025641 0.6867509 0.23162577
0.60921115 -0.4685706 0.6281898 0.44179726 -0.31993955 -0.5271024 0.12221322 -0.14409168
0.040821873 -0.10245733 -0.42911643 0.44880617 -0.5590807 0.3471337 -0.089644074 -0.15527871
0.520343 -0.36385876 0.013594147 -0.7128391 0.47161925 0.35336944 -0.15115905 -0.51775473
0.3438002 -0.31126177 -0.90857506 -0.87003493 -0.07079938 -0.15061937 0.5334941 0.22945906
0.30110377 -0.5328472 0.6741991 0.24835907 -0.018701077 -0.40330437 0.037041545 -0.21777733
0.020613268 0.014401144 -0.50305355 0.48272753 -0.45910567 0.43620846 -0.044130668 0.107510895
0.33513814 -0.5393697 0.07522065 -0.64281464 0.7840157 0.3013433 -0.36630392 -0.8629142
0.56503606 -0.35795686 -0.83655286 -0.8729348 0.03740824 -0.33945006 0.94904083 0.18220818
0.57969296 -0.6616119 0.6056377 0.56077313 -0.1129025 -0.65500605 -0.0889585 -0.5256083
00000000: 131e 133e b8e0 5f3d d41f 14bf f81c bc3e
00000010: 3cad e0be 8d80 0f3f 178d 85bd 6233 2c3e
00000020: 75e3 863e f6d3 27bf 07b6 0fbe 93f3 fdbe
00000030: 0020 083f 14ad b03e ed8a adbe 5dae 6fbf
00000040: 02bd 203f 1c07 e9be 3c7d 5bbf c555 7bbf
00000050: ba86 0e3d addc 86bd bfed 643f c063 033f
00000060: cc0f 193f d1d0 2dbf 73ed 6e3f 1446 d33e
00000070: 246e dfbe e0dd 2bbf 38fb 47bd c120 a3be
00000080: fa8c acbe 97d1 2f3c bc76 8f3e a79e 21bf
00000090: b9dd 833e 5e0c 9dbe 7330 873d 1bc9 443e
000000a0: 4024 b9be 682e 293f 77fd 173d 7260 cd3e
000000b0: 8bd3 6fbf f113 f1be fb01 dd3e 5f2e 8e3f
000000c0: a2dd 24bf 463e e23e 08f2 6d3f 2866 863f
000000d0: 001f 173e a327 4b3e cc05 0bbf db80 aebe
000000e0: 0b3c 00bf ad49 db3e 1e69 4bbf 1546 15bf
000000f0: 428b 923e 87fc 2f3f aa1e cfbd 3bde ee3e
00000100: 8c39 be3e e3c3 32be 30b5 bcbe bf7e b93e
00000110: 4bab 8bbe 58aa f23e 6ab2 fabd dcab 76be
00000120: a0a6 203f 0724 2bbf 99c4 883e a1ce f3be
00000130: 2795 773f 5e72 7a3d 8cc5 a7be a618 7abf
00000140: 2030 8a3e 5277 3bbe d37c 48bf aa3c 80bf
00000150: 35df d6bd 6b21 2abe f527 bc3e 2ce6 4e3d
00000160: 2060 da3e 9c93 fbbe 7e93 1e3f 882e 033f
00000170: 6b71 a93d 293c 15bf 207f 3cbe 6796 b3be
00000180: d638 21be dde9 3c3e dfe1 723e 82d5 0dbf
00000190: ea5a 093f f582 8fbe 691c 07be 3231 083e
000001a0: ddbe 25bf 73a3 583f 1a4d 2ebe d4ec 043f
000001b0: a9f0 7bbf 13f9 90be 12f1 9f3e 1534 823f
000001c0: 211f 26bf 3c66 003f 96d3 7b3f 02f0 2c3f
000001d0: ff31 ac3d 5b9c 2b3e 0a02 e2be c66b b2bd
000001e0: 4be3 a9be 522e eb3e a649 2abf 5adf a9be
000001f0: ffd2 89bd 4b9a 023f 2b81 f7bc 9e32 ae3e
00000200: 6326 28be 2915 5fbc a1d6 513e 2b58 0cbf
00000210: d949 ac3e c156 b2be 3195 343e 12fc 853d
00000220: e966 a5be 77af 103f f572 2abd 0832 273f
00000230: 9935 c4be ad39 72be e338 d13e f00e 4a3f
00000240: 62d5 d5be e394 9a3e 42aa 5c3f c1b6 423f
00000250: 6b94 743c 553a a7bd 4360 60bf 5889 d8be
00000260: c1bf f8be 7137 183f 1d7b e8be eac8 22bf
00000270: a2e6 603e 1396 d53e bf6b d8bc be82 b83e
00000280: 59da 973e 4606 87be 6755 1bbf f3c0 773e
00000290: 5a37 9dbe f0be f53e 3992 f7bc a621 7dbd
000002a0: c0df 6d3e 3168 60bf f08b 023e 7444 1abf
000002b0: 1aa8 823f 8241 ea3e 04a5 fbbe e331 47bf
000002c0: 17d2 283f 1abe 08bf 7967 2dbf b630 88bf
000002d0: 6bf9 41be 56c8 6bbe e8ce 2f3f 4e2f 6d3e
000002e0: 43f5 1b3f 7ce8 efbe 0cd1 203f 4033 e23e
000002f0: 1ecf a3be 2ff0 06bf ed4a fa3d c58c 13be
00000300: d634 273d 26d5 d1bd 26b5 dbbe ecc9 e53e
00000310: ea1f 0fbf 82bb b13e 5097 b7bd 6201 1fbe
00000320: 3335 053f b24b babe fcb9 5e3c a07c 36bf
00000330: 1478 f13e d7ec b43e 70c9 1abe 938b 04bf
00000340: 9406 b03e b45d 9fbe 6098 68bf 9cba 5ebf
00000350: 44ff 90bd f73b 1abe 1293 083f 51f7 6a3e
00000360: 462a 9a3e ad68 08bf 5098 2c3f d751 7e3e
00000370: 0033 99bc e97d cebe e0b8 173d 0501 5fbe
00000380: 28dd a83c c7f2 6b3c 1ec8 00bf 1028 f73e
00000390: e60f ebbe b756 df3e 5cc2 34bd ac2e dc3d
000003a0: 3a97 ab3e 2214 0abf 490d 9a3d 808f 24bf
000003b0: 41b5 483f ab49 9a3e 308c bbbe f2e7 5cbf
000003c0: 34a6 103f 1f46 b7be 5428 56bf a878 5fbf
000003d0: 6239 193d 66cc adbe 57f4 723f c894 3a3e
000003e0: c266 143f 665f 29bf 130b 1b3f d48e 0f3f
000003f0: 6d39 e7bd 7aae 27bf e02f b6bd 448e 06bf

weight f4 [32, 32]
-0.12845393 -0.38371518 0.37283534 -0.20314385 -0.030099478 0.054276336 0.0029309243 -0.2874402
0.14443903 0.052679207 0.29399106 0.4958507 -0.373269 -0.18897486 -0.031070556 0.21971302
-0.3124781 0.52186865 0.00066129665 -0.0047711222 -0.14459676 0.328046 0.086381376 -0.38764298
-0.9367819 0.20464492 -0.3260305 -0.30404127 0.16683261 0.082774155 -0.26509148 0.13113567
0.2537016 -0.15205507 -0.08111892 -0.06650836 0.25920495 0.21156418 0.38424575 0.2335553
-0.49606642 -0.37313217 -0.13876162 -0.1928335 0.44554356 0.26932377 -0.18445642 -0.29034328
0.36778346 -0.18471183 0.30066386 -0.2559683 -0.40302643 -0.066101626 0.24592473 0.2106641
0.29232487 -0.2793511 0.3332634 0.25241515 -0.08312218 0.19891292 0.020468459 -0.31013453
0.002640363 0.25889352 -0.025305035 0.26449445 -0.60576004 0.16435 -0.5331034 0.043713994
0.48541558 0.026084755 -0.060395505 -0.20079811 -0.3225809 -0.010950916 0.32121864 0.40589088
-0.3023949 -0.026280211 -0.36776945 -0.19219387 0.42416236 -0.15686367 -0.11656398 -0.15237565
0.00097043964 0.13675794 -0.2996325 -0.36234096 0.112335645 -0.27675772 0.064406045 0.37256014
-0.045073394 -0.51556593 -0.22293329 -0.11732607 0.34448156 -0.078151554 0.349594 -0.17677625
-0.5214793 -0.30580178 -0.12054185 0.2110343 0.35327187 0.17807324 -0.24556637 -0.34763673
0.16630252 0.044178277 0.43727663 -0.12315106 -0.38089168 0.16904014 -0.04892929 -0.02967236
0.07695034 -0.25925618 0.20966993 0.081740975 -0.019382285 0.040296163 -0.08328397 -0.5766838
-0.19855201 0.12644224 -0.10251086 0.04688882 0.15066803 0.12331312 0.2862359 0.24314593
-0.42105553 -0.10309835 -0.22339416 -0.09475057 0.31063205 -0.07103369 -0.07813309 -0.11646059
0.089443445 -0.17269064 0.024641398 0.1692352 0.018173214 -0.19429305 -0.06029 0.21111831
0.6084106 -0.054238904 0.16481365 0.103301756 -0.055778522 0.041503157 0.06537774 -0.39652324
-0.3544206 0.60902154 0.10966736 0.11797575 -0.007822033 -0.35598913 -0.10522572 0.010050096
0.2798331 0.5389043 0.10265289 -0.14500545 -0.4388131 -0.30956894 0.58134377 0.63338614
-0.38500997 0.1431963 0.14366402 0.059361946 0.6279183 -0.0535812 -0.49237546 0.08304783
0.0678551 0.2740669 -0.39033654 -0.47212642 0.51727587 0.0275401 -0.16751875 0.52221483
0.13047373 0.19260733 0.02578277 0.1367423 -0.26235074 0.13391946 -0.47013423 0.07226174
0.5447107 0.1731059 -0.10989697 0.04728956 -0.096006475 -0.097772956 0.19133575 0.27468127
-0.16308174 -0.04281066 -0.22275685 -0.22301893 0.17925225 -0.025646092 0.16979945 -0.22728078
-0.3885209 0.058290463 -0.03903191 -0.2734192 -0.11669649 -0.3954986 0.03807125 0.0871404
0.14052695 -0.17445622 0.47527772 -0.053954795 -0.038126133 -0.16068196 -0.15819934 -0.16748442
0.3784771 -0.096261494 0.31215778 0.49013236 -0.4015257 -0.069411956 0.25720885 -0.010663576
-0.121025056 0.30463904 0.0077615143 0.18746348 -0.0054608155 0.32561088 -0.037435956 -0.16580543
-0.7826493 -0.019061936 -0.2807222 -0.26675496 0.20036459 -0.005258175 0.10720944 0.30222353
00000000: 6d89 03be 5176 c4be 46e4 be3e f104 50be
00000010: 2e93 f6bc dd50 5e3d c014 403b 5d2b 93be
00000020: d3e7 133e 27c6 573d ff85 963e 25e0 fd3e
00000030: 1d1d bfbe a082 41be ae87 febc 73fc 603e
00000040: 21fd 9fbe 2f99 053f de5a 2d3a 1357 9cbb
00000050: 2c11 14be a5f5 a73e b8e8 b03d 2479 c6be
00000060: f0d0 6fbf 708e 513e 78ed a6be 4cab 9bbe
00000070: 2bd6 2a3e 7f85 a93d 12ba 87be 6e48 063e
00000080: 2de5 813e 53b4 1bbe ad21 a6bd 8935 88bd
00000090: 83b6 843e 48a4 583e dcbb c43e 1f29 6f3e
000000a0: 6bfc fdbe 2e0b bfbe 8717 0ebe 2576 45be
000000b0: 491e e43e cee4 893e 25e2 3cbe e0a7 94be
000000c0: 1d4e bc3e 1925 3dbe 9df0 993e 470e 83be
000000d0: 7b59 cebe 4a60 87bd b1d3 7b3e 54b8 573e
000000e0: 9bab 953e 1b07 8fbe 80a1 aa3e 8f3c 813e
000000f0: f63b aabd d4af 4b3e 78ad a73c f4c9 9ebe
00000100: f109 2d3b b18d 843e 814c cfbc d16b 873e
00000110: 1713 1bbf 5e4b 283e 7779 08bf 720d 333d
00000120: 6488 f83e b2af d53c 4761 77bd 059e 4dbe
00000130: 5329 a5be 796b 33bc c576 a43e eed0 cf3e
00000140: 81d3 9abe 9949 d7bc 474c bcbe 78ce 44be
00000150: cf2b d93e dfa0 20be 19b9 eebd 5d08 1cbe
00000160: 1a65 7e3a 460a 0c3e 6e69 99be c184 b9be
00000170: 3b10 e63d 30b3 8dbe 51e7 833d 34c0 be3e
00000180: e19e 38bd 21fc 03bf a048 64be a748 f0bd
00000190: e35f b03e ec0d a0bd fcfd b23e d504 35be
000001a0: ab7f 05bf 0d92 9cbe a5de f6bd 6019 583e
000001b0: 0de0 b43e d558 363e c075 7bbe 71fd b1be
000001c0: 354b 2a3e 48f4 343d b9e2 df3e 9f36 fcbd
000001d0: 3c04 c3be dc18 2d3e 146a 48bd 7313 f3bc
000001e0: 2498 9d3d 3abd 84be b7b3 563e d067 a73d
000001f0: 99c7 9ebc 970d 253d c990 aabd 8da1 13bf
00000200: 3851 4bbe 137a 013e 37f1 d1bd 7e0e 403d
00000210: b848 1a3e 978b fc3d 838d 923e 3ffb 783e
00000220: 9794 d7be 3a25 d3bd 70c1 64be 960c c2bd
00000230: 2a0b 9f3e 1c7a 91bd 3e04 a0bd e482 eebd
00000240: 202e b73d d1d5 30be c2dc c93c fe4b 2d3e
00000250: fedf 943c c2f4 46be a6f2 76bd 662f 583e
00000260: ccc0 1b3f 9d29 5ebd e9c4 283e df8f d33d
00000270: 0578 64bd 37ff 293d c4e4 853d 1805 cbbe
00000280: 9e76 b5be d6e8 1b3f 4899 e03d 459d f13d
00000290: fc27 00bc 3544 b6be 9580 d7bd 28a9 243c
000002a0: 4946 8f3e a2f5 093f ae3b d23d 4f7c 14be
000002b0: 1cac e0be d27f 9ebe f2d2 143f 9825 223f
000002c0: 0720 c5be 0da2 123e a91c 133e 8325 733d
000002d0: 41bf 203f f677 5bbd a318 fcbe fb14 aa3d
000002e0: 9df7 8a3d 7f52 8c3e 31da c7be 8eba f1be
000002f0: 316c 043f c79b e13c 098a 2bbe dfaf 053f
00000300: e89a 053e db3a 453e 6336 d33c 2c06 0c3e
00000310: d652 86be 2f22 093e 6fb5 f0be f7fd 933d
00000320: 2972 0b3f ac42 313e aa11 e1bd b3b2 413d
00000330: 0b9f c4bd 303d c8bd 85ed 433e 06a3 8c3e
00000340: e6fe 26be 3b5a 2fbd 5f1a 64be 135f 64be
00000350: e78d 373e c117 d2bc e8df 2d3e 4bbc 68be
00000360: 36ec c6be fbc1 6e3d eddf 1fbd 9afd 8bbe
00000370: 92fe eebd cb7e cabe 99f0 1b3d ab76 b23d
00000380: 4ce6 0f3e a7a4 32be 9a57 f33e b4ff 5cbd
00000390: 262a 1cbd d089 24be 02ff 21be 0981 2bbe
000003a0: c0c7 c13e bf24 c5bd 25d3 9f3e a1f2 fa3e
000003b0: c794 cdbe db27 8ebd e1b0 833e 48b6 2ebc
000003c0: fcdb f7bd a6f9 9b3e 4d54 fe3b 6df6 3f3e
000003d0: a4f0 b2bb 78b6 a63e 7256 19bd e6c8 29be
000003e0: b45b 48bf c727 9cbc d2ba 8fbe 1b94 88be
000003f0: 602c 4d3e c54c acbb 9f90 db3d 0bbd 9a3e

weight f4 [32, 32]
-0.06068439 0.04118272 0.31285855 0.041379537 0.23781931 -0.23337658 0.2849089 0.04400554
-0.14158908 0.38691568 -0.13097335 0.23547295 -0.14171098 -0.123295724 -0.083184354 0.034079544
0.013858197 0.7129676 0.26430744 0.47952572 -0.060862742 0.17006783 -0.08113487 0.24526305
-0.22720562 0.15331025 -0.108362935 -0.20287152 -0.04345676 0.024156135 0.10509632 -0.48071828
-0.029041003 2.2996364 0.45355335 -0.7825365 0.2920009 0.55540323 -0.9318876 -0.28409186
-0.17615287 -0.763352 0.064763725 1.5862652 0.57023513 0.39177886 -0.2693193 -1.779947
0.6939393 0.2948712 -0.32911268 -0.16646335 2.3663077 0.58352274 1.2952065 -0.9803849
-2.08632 -0.88434625 0.21866481 0.17558616 -1.3187709 -1.0494888 -0.12145512 -1.5644933
0.70532 0.06663726 -1.2567267 0.2344864 -0.3843786 0.26211673 -0.19590966 0.44995835
0.36227196 -0.42175475 -0.7680792 -1.0095365 0.6184304 0.54010683 -0.09791808 0.37396452
0.3341743 -1.5277661 -0.5630164 -1.0362402 -0.22145993 -0.8272737 0.008858779 0.94270575
1.2944235 -0.1062412 0.75716054 0.47820678 -0.047360152 -0.03217423 0.51295114 0.3528434
-0.22289377 0.13550454 -0.103344925 -0.22470385 0.25263757 -0.03617504 0.41187632 0.20066258
-0.34844962 0.086460195 -0.02173059 -0.08601402 -0.05160062 -0.45866424 0.06546774 0.5236799
0.020692453 0.37086064 0.2049252 0.43898505 -0.035268888 0.055426233 -0.3378906 0.57376415
0.5655913 0.22993846 -0.053174667 0.14353517 0.4061556 0.1971373 0.11636971 0.2327942
0.001374522 -0.058159653 -0.21037284 0.19372489 0.19215317 0.33433858 -0.16544826 -0.07576515
0.36910775 0.06995658 -0.2519235 -0.15363382 -0.1763575 0.5094613 -0.09504921 -0.2234525
-0.044129603 -0.4579688 0.12210711 -0.02096187 -0.00912097 -0.34948754 0.20002967 -0.42321974
-0.15126547 -0.27555078 0.22001977 -0.119650446 -0.37509856 0.20347632 0.20017996 -0.048200745
-0.52871186 -0.09234564 0.5616442 0.072989106 0.2889667 0.007363356 0.51378894 0.05916584
-0.023442432 0.34059897 0.060183153 0.29419667 -0.23012066 -0.42289224 0.0039142333 0.05815993
-0.03655784 0.59242827 0.64974284 0.50938517 0.21580985 0.2292338 -0.22336122 -0.047980037
-0.1500532 0.08312741 -0.44879416 -0.025530158 0.18974844 0.113797024 0.090920374 -0.3347958
0.12506594 -0.17762981 -0.4087085 0.11235143 -0.24533308 0.21330965 0.26482934 0.15906516
0.33705363 -0.08422946 -0.19797763 -0.24433176 -0.032343537 0.5376856 0.09976901 -0.15508762
-0.006444018 -0.4297377 -0.18880427 0.16366018 -0.020889353 -0.40328237 0.22925843 0.053594407
0.12731074 -0.2271204 0.12614867 -0.06341948 -0.088765964 -0.24808669 0.15743834 0.43120018
0.028010009 0.1224759 0.349906 -0.8423862 0.044469953 -0.24072811 -0.04032375 -0.056884076
-0.13413349 -0.16227499 0.43798795 0.6270533 -0.7368205 -0.42688096 0.34067333 0.51487726
-0.276431 0.24656734 0.24596286 0.36784083 0.18498443 0.33332667 -0.2788613 -0.30963835
-0.30904815 0.451958 -0.17933802 -0.40690914 0.31400698 0.070648745 -0.32149243 0.5710691
00000000: 3290 78bd 36af 283d ff2e a03e 977d 293d
00000010: e886 733e 45fa 6ebe 94df 913e 273f 343d
00000020: bafc 10be d019 c63e e11d 06be d21f 713e
00000030: af1c 11be 7882 fcbd 8f5c aabd fe96 0b3d
00000040: 7e0d 633c 0b85 363f 4e53 873e 6584 f53e
00000050: 364b 79bd 4326 2e3e 0a2a a6bd 3d26 7b3e
00000060: 97a8 68be 5dfd 1c3e 63ed ddbd 8dbd 4fbe
00000070: b7ff 31bd 16e3 c53c bd3c d73d b520 f6be
00000080: 66e7 edbc 3e2d 1340 2538 e83e 5054 48bf
00000090: 2481 953e e82e 0e3f 3090 6ebf 7d74 91be
000000a0: 6b61 34be 096b 43bf d8a2 843d bd0a cb3f
000000b0: eefa 113f 3d97 c83e 38e4 89be 4ed5 e3bf
000000c0: 02a6 313f 5cf9 963e 7581 a8be 5e75 2abe
000000d0: 9671 1740 bf61 153f 54c9 a53f 81fa 7abf
000000e0: 4486 05c0 8464 62bf abe9 5f3e dccc 333e
000000f0: 7ccd a8bf a655 86bf 76bd f8bd 5141 c8bf
00000100: da8f 343f 1e79 883d 6cdc a0bf 341d 703e
00000110: 46cd c4be 2a34 863e 8b9c 48be f160 e63e
00000120: b67b b93e 3df0 d7be d7a0 44bf 7e38 81bf
00000130: 7451 1e3f 7144 0a3f 4689 c8bd 4778 bf3e
00000140: e518 ab3e d78d c3bf d821 10bf 85a3 84bf
00000150: 64c6 62be 36c8 53bf 6a24 113c 2a55 713f
00000160: abaf a53f fc94 d9bd 46d5 413f 85d7 f43e
00000170: b8fc 41bd 20c9 03bd c450 033f e4a7 b43e
00000180: 443e 64be b4c1 0a3e 81a6 d3bd c418 66be
00000190: b659 813e 472c 14bd 74e1 d23e 7e7a 4d3e
000001a0: fd67 b2be 0b12 b13d 5a04 b2bc 1e28 b0bd
000001b0: 2c5b 53bd 0ad6 eabe f313 863d e30f 063f
000001c0: 3883 a93c 72e1 bd3e e9d7 513e a6c2 e03e
000001d0: 1c76 10bd 9e06 633d ffff acbe 35e2 123f
000001e0: 97ca 103f fd74 6b3e aecd 59bd e2fa 123e
000001f0: a0f3 cf3e 5cde 493e 3e53 ee3d 9a61 6e3e
00000200: 4e29 b43a d138 6ebd fa6b 57be d15f 463e
00000210: cdc3 443e 6d2e ab3e 456b 29be c22a 9bbd
00000220: b1fb bc3e 6545 8f3d 1efc 80be 2f52 1dbe
00000230: 0f97 34be 0e6c 023f 29a9 c2bd bbd0 64be
00000240: 3ec1 34bd e37a eabe 4b13 fa3d 3ab8 abbc
00000250: 1f70 15bc 08f0 b2be 94d4 4c3e 42b0 d8be
00000260: 56e5 1abe fe14 8dbe dd4c 613e 4b0b f5bd
00000270: eb0c c0be 195c 503e fafb 4c3e 256e 45bd
00000280: a959 07bf b61f bdbd eac7 0f3f 507b 953d
00000290: 71f3 933e 4f48 f13b ac87 033f e157 723d
000002a0: 580a c0bc fd62 ae3e 9c82 763d f2a0 963e
000002b0: c0a4 6bbe 5585 d8be f842 803b 1b39 6e3d
000002c0: acbd 15bd 61a9 173f 8c55 263f 1167 023f
000002d0: 42fd 5c3e 44bc 6a3e ceb8 64be b786 44bd
000002e0: 8ca7 19be b43e aa3d 59c8 e5be 9f24 d1bc
000002f0: 6a4d 423e 6a0e e93d 7634 ba3d 5b6a abbe
00000300: 4911 003e 97e4 35be 3e42 d1be 8218 e63d
00000310: 9838 7bbe d86d 5a3e b697 873e fae1 223e
00000320: 4b92 ac3e 7f80 acbd a6ba 4abe 1b32 7abe
00000330: a87a 04bd c3a5 093f b253 cc3d 4acf 1ebe
00000340: 5728 d3bb 9406 dcbe e855 41be 8996 273e
00000350: 2620 abbc 077b cebe b9c2 6a3e cf85 5b3d
00000360: bf5d 023e 4092 68be 1e2d 013e 13e2 81bd
00000370: eeca b5bd 700a 7ebe 8437 213e 45c6 dc3e
00000380: 3f75 e53c a5d4 fa3d e126 b33e 9fa6 57bf
00000390: 2026 363d 6e81 76be 842a 25bd 47ff 68bd
000003a0: 4a5a 09be 6a2b 26be f53f e03e 9186 203f
000003b0: 45a0 3cbf 2490 dabe bc6c ae3e ffce 033f
000003c0: 5d88 8dbe 267c 7c3e b0dd 7b3e a255 bc3e
000003d0: 8f6c 3d3e cba9 aa3e e9c6 8ebe eb88 9ebe
000003e0: 8f3b 9ebe 0a67 e73e 63a4 37be 6556 d0be
000003f0: 86c5 a03e 4ab0 903d a89a a4be 9631 123f
