trained_models/embedding_baseline_model.pt (torch, 69852 bytes, 19 tensors)

fc1.weight f4 [128, 32]
00000000: be12 0f3e 411b 0b3e a7ac 85bd 144a 363e
00000010: f6f2 86bd 9483 863d 4ef5 9fbd fd60 9c3d
00000020: 8e0c 343e 72e4 0dbe c5cf 243e 9eee f63c
00000030: e10c ea3d 2df9 083d 24d7 8a3d 9af5 c5b9
00000040: 868b 0c3e f5ce a03c 9a00 d4bd b315 b03c
00000050: d89b 7bbd 9a0f 9ebc 9b54 76bd 1cf2 b33d
00000060: bcaf 0bbe f4a4 8cbd c75a 89bd 6021 bbbd
00000070: b430 873b f8a6 49be 5a74 2e3e 3cba 31be
00000080: 75c9 193e bcb1 bc3c 9669 8abd 4ef3 d23d
00000090: 1561 9f3a b066 243e 3dd6 4fbb b13c 79bd
000000a0: 0a9b 243d 4715 61bd 8d79 c53d c488 263e
000000b0: 4484 db3d 74ec 97bd 5ce3 bf3d 5dda 303c
000000c0: 6792 c93d 83c8 c3bd 8bfb 2cbe 19ff 84bd
000000d0: 37cf 08be 0c85 083e aad7 eb3c 3d79 713d
000000e0: 45f6 4e3d a888 0a3c 6bde f53d 27e2 05be
000000f0: 4426 b73c 308c 0cbe 3a49 953d be7c 8fbd
00000100: 51a0 9a3d 8438 0cbd 8b7b 0f3e 8529 0dbe
00000110: 0413 fdbd 7dbb d2bd 3f39 123e b448 483d
00000120: 3052 413e ed6e f7bd 9b2a 34be 3495 0dbe
00000130: fa07 f5bd a015 983d 533c 553d 1cb2 263e
00000140: 3192 e2bd 5ed0 c6bd 3ad9 c03d 1620 8dbd
00000150: 30db b73d e952 bcbc c8af e33d 79a4 17be
00000160: 25ad e9bd 1b7d 8f3d b2a7 353d 131e a0bc
00000170: f0fa a73d 38d4 bd3d 722f e1bd a956 9ebd
00000180: d7d7 213e 77e7 9bbd 7611 62bd fb7f 39be
00000190: 2862 e3bd 5ab4 4e3d 2c35 6ebc 761d 11be
000001a0: e1d1 d33b 4f7b ebbd eed6 21be 0f10 d2bd
000001b0: a883 0bbe 5f41 f0bd 23e5 2e3e 8bc3 ef3c
000001c0: b7fb 7a3d f476 1ebe 37d2 c9bd c71f 90bd
000001d0: 4b1b ab3c 598c 13be e02f a1bd 1f88 d9bd
000001e0: f951 c8bb 37ae 5ebd 861a e8bb 8096 f1bd
000001f0: 3c26 f0bd b471 d1bd 288f 51bd 210b 14be
00000200: 1392 223e b674 89bc 9879 0a3e 6577 823d
00000210: be21 2bbe 4342 0c3e b215 2bbd 330f 86bd
00000220: ad04 11be 4b56 2abe 23c0 443d c1e8 6cbd
00000230: df2a 533d 2871 07be 96fd 0c3e 465e 03be
00000240: 5131 29bd 62f4 c63c 8139 a53d 78be ff3d
00000250: 2979 2b3e d494 10be 727e 363d 5257 b1bd
00000260: fc96 ff3b df2f 0abe 0051 203e 58c0 19be
00000270: ed12 a83d 50db 173d 777f 983d 1ae3 c6bd
00000280: 642d 223e b487 5b3d 9b5c 883c 4b0c 28be
00000290: b759 b63d 6104 b4bc 5171 a4bd 461f 143e
000002a0: 5176 cf3c ed91 d4bd 301c c5bd 62b4 b3bb
000002b0: 5807 a53d 67cf 4fbd f0ae c0bd b3e9 73bd
000002c0: 042b 02be ce36 893d 6c95 0a3e 0656 36be
000002d0: 73b9 343d 54fe a13d 7015 cd3c 287b 7ebd
000002e0: 4e40 c03d 1435 a53d 4df4 763d 3207 cebc
000002f0: 798b 31bd 72b1 d33c 76d8 21bd 5acf 72bd
00000300: 9347 d63d a559 3c3e 4f59 e5bc 0687 d5bc
00000310: 801f 8038 452e c239 53d0 3e3d d2a5 683d
00000320: de8f 22be e4af 82bd 203b 033e 5ecf af3d
00000330: 0052 97bc 9a8c aabd 6fe6 bdbd f050 1ebe
00000340: a9f9 63bd bce2 3f3d cc4b e23d d864 8e3d
00000350: 5304 05be 2044 f4bd 8885 89bc 0fa5 303e
00000360: 95b6 0c3d d488 4abd f9ab a03d 7d40 c0bd
00000370: cf8f e9bd 9038 053e 0836 b8bd 8ed7 1cbd
00000380: 69c4 35be 59da 063e 348f e73d ca5a 563d
00000390: e858 e7bd 3cb7 3bbe 04df 18be 336b fb3d
000003a0: 754e a73d 812d 043e f9a7 b73d ee2f 6d3d
000003b0: 35bb 6abc 5861 13be c518 19be 2fdd 1dbe
000003c0: 87af 973d adf8 a1bd d079 a1bc d628 dfbd
000003d0: b8e9 46bd 01f8 04be 506e edbd 1447 823d
000003e0: 0a30 8cbd 1077 e33d 8e39 49bd 42d7 05be
000003f0: 84a4 16bd a555 95bd 96bb 4abd 7448 22be
0.13971993 0.13584615 -0.065270714 0.17801696 -0.0658931 0.06568065 -0.0781046 0.076356865
0.17582914 -0.13856676 0.16094883 0.030143078 0.11428238 0.033440758 0.06779316 -0.00037757755
0.13725099 0.019629935 -0.10351677 0.021494722 -0.06142792 -0.019294549 -0.06013928 0.08786413
-0.13641256 -0.068674 -0.067067675 -0.09137225 0.004125679 -0.196926 0.17036572 -0.17356199
0.15018256 0.02303397 -0.0675842 0.10300313 0.001215967 0.16054797 -0.003171339 -0.060848895
0.04018692 -0.054951932 0.096423246 0.1626311 0.10718587 -0.07418147 0.09369537 0.010794249
0.09842377 -0.09559729 -0.16892831 -0.064939685 -0.13360296 0.13332003 0.02878936 0.058953512
0.05052783 0.008455433 0.120053135 -0.13074552 0.022357114 -0.13725352 0.072893575 -0.070062146
0.07550109 -0.034233585 0.14011972 -0.1378537 -0.123571426 -0.10289667 0.1427965 0.04889746
0.18879008 -0.12081704 -0.17594378 -0.13826448 -0.11964412 0.07426 0.052059483 0.16278881
-0.1106304 -0.09707712 0.09416433 -0.068908855 0.089773536 -0.022988753 0.11117512 -0.14808835
-0.11409978 0.07006284 0.04434938 -0.01954559 0.082021594 0.09268993 -0.109953776 -0.07731373
0.15804993 -0.07612508 -0.055192433 -0.18115227 -0.11102706 0.050464965 -0.014539044 -0.14171395
0.0064642285 -0.114981286 -0.15804645 -0.10256969 -0.13624442 -0.117312185 0.17079596 0.029268047
0.06127521 -0.15475065 -0.098545484 -0.07037311 0.020887038 -0.14409007 -0.078704596 -0.10621666
-0.0061132875 -0.054365363 -0.00708324 -0.11796284 -0.11726043 -0.10226765 -0.051161915 -0.1445737
0.15876035 -0.016779285 0.13522947 0.06370429 -0.1671209 0.13697152 -0.041768737 -0.06545868
-0.1416194 -0.1663448 0.0480348 -0.05783916 0.051554557 -0.1322676 0.1376861 -0.12828931
-0.041306797 0.024286453 0.080676086 0.12487501 0.16745438 -0.14119273 0.04455418 -0.08659233
0.007799981 -0.13494824 0.15655899 -0.1501478 0.08206735 0.037074387 0.07446187 -0.09711285
0.15837628 0.053596213 0.01664572 -0.1641094 0.089038305 -0.021974744 -0.08029426 0.14465055
0.025324972 -0.10379396 -0.09624517 -0.00548415 0.08058041 -0.050734904 -0.09408367 -0.059549045
-0.12711722 0.06699906 0.13533562 -0.17806253 0.04412217 0.07909837 0.025034636 -0.06212917
0.09387265 0.080667645 0.060291577 -0.025149915 -0.043345902 0.025841448 -0.039513074 -0.059279777
0.104628704 0.18393572 -0.027996687 -0.02606536 6.109383e-05 0.00037037037 0.046585392 0.056798764
-0.15875193 -0.06381205 0.12815523 0.08584474 -0.018471718 -0.08327599 -0.09272467 -0.15460563
-0.055658016 0.04684709 0.11049613 0.06952828 -0.12989931 -0.11927056 -0.016787305 0.17250465
0.03435381 -0.049446896 0.07845301 -0.093873 -0.114043824 0.13009858 -0.08994681 -0.038291506
-0.17750706 0.1316923 0.11306611 0.052332677 -0.112962544 -0.18331617 -0.14928824 0.12276306
0.08169261 0.12907983 0.08967585 0.057907037 -0.01432686 -0.14392602 -0.14950855 -0.15416406
0.07406526 -0.07908759 -0.019711405 -0.10896461 -0.048562735 -0.12985231 -0.11593306 0.06361213
-0.068451 0.11106694 -0.049127154 -0.13070396 -0.036777988 -0.07291726 -0.049495302 -0.15847951

fc1.bias f4 [128]
00000000: eb93 f5bd d6d4 143e 895e 103e 5e93 063e
00000010: d94a 5fbd 550c d13d 9a94 10be a4e0 913d
00000020: 9c1e 3ebc 8856 02be 2142 08be b4ea 26be
00000030: 7515 2c3d 98ad 95bd 894d 30be c50a 353e
00000040: e9b1 61bd 2f2e 3f3d 1db2 35bd 05f5 ce3d
00000050: 7437 463d c381 e93d ae98 0c3d 68ab 27bd
00000060: 5537 113e 7b9a efbb 09fb dcbd cd17 373d
00000070: bdd2 0fbd 7762 07be 1bd4 bc3c 675f 44bd
00000080: df7b 90bd 61aa 0cbe b5d9 a0bd bfe3 98bd
00000090: 1883 a7bb 77ff 3b3e 5e93 babd 2a11 ffbd
000000a0: b5aa e8bd b57c d1bb c40d 923b 2f84 eebd
000000b0: bf8c 943d f907 28be fe5d 333e bfc1 c83c
000000c0: ca20 aabc 02e5 82bd 32a9 993d d481 0c3e
000000d0: 6cc6 efbd a13b cdbd 4560 fa3d a55c 58bd
000000e0: de78 fabd 36af 75bd 406b a7bb 05bd 2cbd
000000f0: d472 0abe a3bf cbbd ebc1 053d c1c6 e13d
00000100: 097b 283e ae4c 71bd 9652 813d 8837 0ebe
00000110: 9f4c b63d b22e 223e 9b52 b43d 2e36 8fbd
00000120: ef77 0a3e 8a89 25be b58e bebb eeaf 7cbd
00000130: 451d 42be 42de c7bd 32a2 debd 85ad 273d
00000140: 149b d7bc 427d 833d b7d8 f8bc 69af 0c3e
00000150: dd89 b13c f290 213e 00e2 303e d813 1cbe
00000160: 26e9 0dbe 625c d23d 4eee 183e a843 17be
00000170: 7374 093c 4eb0 75bd 53c6 153e f01b 1e3e
00000180: 08a2 0f3e 409b a73d 9b14 1dbc 1e88 163e
00000190: 76e3 a4bd 4dd2 92ba 75de 31bd 4482 06be
000001a0: ea41 bbbd 504f 323d 7684 b6bc 1ef9 e2bd
000001b0: 09df e0bc 6a8f dd3c d55c e8bd ac5e c83d
000001c0: 4de4 11be d1bc 20bd 1d2a fbbd 0571 1fbe
000001d0: 2ee7 f8bc 014c 273e fd75 2f3e d21c 643d
000001e0: 22da 033e 1b6f b3bd 95dd d73d 6093 c73d
000001f0: 726c 32be 7ec7 04be 3419 a03d cab3 bc3c
-0.11991104 0.14534315 0.14098562 0.13142154 -0.05451474 0.1020743 -0.14119187 0.07122925
-0.0116039775 -0.12728322 -0.13306476 -0.1630047 0.04201265 -0.07308501 -0.17217077 0.1767989
-0.05510131 0.046674903 -0.044359315 0.101053275 0.048392728 0.11401703 0.034325294 -0.04093495
0.14181264 -0.0073121167 -0.10790069 0.044700433 -0.035113085 -0.13221155 0.023050359 -0.047942545
-0.070548765 -0.1373687 -0.07854024 -0.07465314 -0.005112063 0.18359171 -0.09110139 -0.12454446
-0.11360685 -0.00639304 0.0044572074 -0.11646306 0.07253408 -0.16409291 0.17516324 0.024506448
-0.020767588 -0.06391336 0.075029746 0.137214 -0.11707768 -0.10021139 0.12225393 -0.052822728
-0.12230085 -0.059981547 -0.0051092207 -0.04217245 -0.13520366 -0.09948661 0.032655638 0.110242374
0.16453184 -0.058911018 0.0631458 -0.13888371 0.08901333 0.15838125 0.08804818 -0.06992756
0.13522314 -0.16165748 -0.005815352 -0.061691217 -0.18956478 -0.09759189 -0.1087078 0.040936965
-0.026319064 0.064203754 -0.030376775 0.13738789 0.021672184 0.15777948 0.17273712 -0.15241945
-0.1385847 0.10271527 0.14934656 -0.14771903 0.00838958 -0.05998259 0.14626436 0.15440345
0.14026654 0.081839085 -0.009587432 0.14700362 -0.08051197 -0.001120159 -0.043425042 -0.1313563
-0.091434315 0.04353267 -0.02227996 -0.110826716 -0.027450101 0.027045924 -0.11345831 0.09783682
-0.14247246 -0.03924257 -0.12263892 -0.15570457 -0.030383673 0.16337587 0.17134853 0.055691548
0.1287618 -0.08761426 0.1054031 0.097449064 -0.17424181 -0.12966725 0.07817307 0.023034949

bn1.weight f4 [128]
00000000: 97c5 803f 4548 7f3f 3e6a 7b3f b164 7b3f
00000010: d124 7d3f fb38 743f c216 733f 69ee 723f
00000020: 8d95 773f 64bc 753f 54d4 733f b3ab 803f
00000030: e11d 7e3f 51fa 853f a31f 923f 40ef 7d3f
00000040: fb0d 7a3f 03a1 723f f879 8b3f f54e 773f
00000050: bf04 793f 39ab 7f3f 822e 793f d303 7d3f
00000060: 5bc6 763f 035f 793f ae7d 7f3f f50f 863f
00000070: 62b5 743f 39c2 723f 41b0 773f cce3 743f
00000080: 445a 753f 5bbe 9a3f ec19 813f a54f 793f
00000090: 978f 863f 17ce 853f e233 783f d573 8f3f
000000a0: dfc0 7c3f c040 833f 4eba 803f 5339 763f
000000b0: cfe2 783f ce1e 783f 8e42 823f 94e2 773f
000000c0: 8297 803f cccf 7a3f 2541 813f c979 853f
000000d0: 5397 7f3f 69cf 8f3f 8436 803f 4960 8c3f
000000e0: 9ca9 773f b820 793f 5f81 6f3f 66db 743f
000000f0: 51c0 813f 5847 743f 28e8 753f 5c5a 753f
00000100: fabf 843f cf04 873f 4925 7a3f 1be2 7e3f
00000110: 042d 753f 4cd9 773f 054a 753f af1f 743f
00000120: f9bd 763f a115 7a3f 410e 763f 667e 703f
00000130: b497 833f 06b0 753f 1e17 733f c0c5 743f
00000140: f2cd 883f 99d8 843f d938 743f 60a5 783f
00000150: ea32 793f d5e0 7b3f f2ef 903f 17a1 813f
00000160: 690c 843f 1974 813f fc43 753f 245e 7b3f
00000170: 6c16 773f 29c6 773f bb87 743f 5c69 803f
00000180: f35b 893f 79b6 813f 8f34 803f ab44 7a3f
00000190: c05e 7d3f be47 833f 8473 843f 5c27 7f3f
000001a0: f788 793f 77c6 8a3f 4e34 793f 90c6 713f
000001b0: 19b6 7e3f 804d 7b3f 8ac3 783f c7cd 7a3f
000001c0: cb99 783f cb1b 8d3f e17c 713f 6eb6 793f
000001d0: 819c 783f b4f2 7d3f fa74 803f 864c 813f
000001e0: 4e3a 7a3f d1af 7e3f e496 773f a09a 7b3f
000001f0: af7c 803f 9be5 803f f904 7b3f ad40 763f
1.00603 0.9971965 0.9820899 0.9820052 0.988843 0.95399445 0.949566 0.94895035
0.9671257 0.95990586 0.9524586 1.0052398 0.9926434 1.0467016 1.1415905 0.9919319
0.9767758 0.94776934 1.0896597 0.96604854 0.97272867 0.9987064 0.9733659 0.9883396
0.96396416 0.974106 0.99801147 1.047362 0.9558927 0.9482761 0.9675332 0.9566009
0.9584086 1.2089342 1.0086036 0.9738715 1.051257 1.0453519 0.96954167 1.1207224
0.987318 1.0254135 1.0056856 0.9618122 0.9722108 0.96922004 1.0176561 0.96830106
1.0046237 0.9797332 1.0098006 1.0427791 0.9984028 1.1235172 1.0016637 1.0966884
0.9674318 0.9731555 0.9355678 0.95647275 1.0136815 0.9542136 0.9605737 0.95841
1.0371087 1.0548342 0.9771314 0.9956376 0.95771813 0.96815944 0.9581607 0.95360845
0.96383625 0.97689253 0.961155 0.9394287 1.0280671 0.95971715 0.9495715 0.9561424
1.068785 1.03786 0.9539924 0.9712734 0.97343314 0.9838994 1.1323225 1.0127286
1.0316287 1.0113555 0.9580686 0.9819052 0.9651859 0.96786743 0.9551961 1.0032153
1.0731186 1.0133811 1.001604 0.9776103 0.989727 1.0256269 1.0347753 0.9966943
0.97474617 1.0841817 0.97345436 0.9444361 0.9949661 0.9816513 0.9717337 0.9797024
0.9710967 1.1024107 0.94331175 0.9754399 0.97113806 0.9919846 1.0035698 1.0101478
0.97745216 0.99487025 0.96714616 0.98282814 1.003805 1.007007 0.9805446 0.9619244

bn1.bias f4 [128]
00000000: 92d5 19bd 0297 ddbc 0a0e fbbc f7e4 02bd
00000010: 6155 51bd f5cd 2cbd 355c 24bd e0ca 1dbd
00000020: 6bd7 2ebc 7ec1 edbc 3769 49bd 399d 62bd
00000030: 105a f0bc fd3c 89bd b743 49bd bcec d4bc
00000040: 0181 023c 48bd 32bd a09a 70bd 6ff9 02bd
00000050: ce0d 0bbc bc28 2abd 8a61 37bc e6ea 29bd
00000060: 17e1 31bd fe78 4bbb e024 a4bc fc67 33bd
00000070: a467 febc 7364 17bd 2417 44bd 38a5 a7bc
00000080: 75ab c1bc 5752 39bd 1d16 3bbc 3a7a 92bc
00000090: c57a 8abd e137 a5bd d998 e6bc 078b 9cbd
000000a0: 8b10 b3bc 0965 edbc b6c7 3abd f57f 1ebd
000000b0: fcf0 5cbd 448d 37bd 45a1 40bd cb76 ddbc
000000c0: 2e42 42bd 7630 e4bc 9f43 65bd ef9a f6bd
000000d0: bb0b 26bc 1359 aebd cc9b d6bc 0841 76bd
000000e0: 6aed 18bd 1dc9 1ebd cfcd 14bd 2643 26bd
000000f0: 7247 e2bc 3a1a 12bd 92c8 36bd 408d 41bd
00000100: 895c c8bd d896 17bd 6e7e 5abd 32e5 38bd
00000110: 8ce1 49bd eb34 42bd cd14 16bd 18a7 42bd
00000120: 0ffe fbbc 75da aebc cfee e2bc 20de 70bd
00000130: 85e4 a7bd 4f41 23bd 060f 57bd b97d c4bc
00000140: 16c5 8dbd 5e16 b2bd d8f1 61bd ea6f 2bbd
00000150: 04c4 2cbd 5c10 cabd 1782 933b 341a d5bd
00000160: d1e6 39bd 69f9 0abd e85f bcbc e963 67bc
00000170: bf51 10bd 4fe3 d1bc bbbe 2cbd 611a c9bd
00000180: 01ae 18bc b8bc 98bd 4349 1b3c 49cd c9bc
00000190: afab ccbc a206 37bd 1632 0fbd 6add 14bd
000001a0: c245 f4bc 777b 973b 8ebe 4fbd e77c 38bd
000001b0: c2df 39bd de89 8cbc 9ab9 40bd f558 ccbc
000001c0: f637 82bd 1b61 94bd 7193 75bd 0ff3 5fbc
000001d0: 3094 23bd a818 9dbb 7d50 96bd 5e00 83bd
000001e0: 9d56 99bc bab1 1cbd 4422 95bc da98 9bbc
000001f0: d10a 5ebd 3f52 6abc e57d 63bb 97f7 92bc
-0.037557192 -0.027049545 -0.030646343 -0.03195664 -0.051106814 -0.042188603 -0.040126998 -0.038523555
-0.010671477 -0.029022928 -0.049172606 -0.05532572 -0.02933982 -0.06701086 -0.049136844 -0.02599179
0.007965327 -0.043637544 -0.058741212 -0.03197616 -0.008487178 -0.041542754 -0.011192689 -0.041483782
-0.043427553 -0.0031047459 -0.020037115 -0.04380034 -0.03105528 -0.03696103 -0.04787363 -0.020464525
-0.023641327 -0.04524454 -0.011418846 -0.017880548 -0.06761698 -0.08067299 -0.028149055 -0.07643705
-0.021858474 -0.028978841 -0.045600615 -0.038696248 -0.053940758 -0.044812456 -0.0470288 -0.027034184
-0.047426395 -0.02785514 -0.05597269 -0.1204127 -0.010134633 -0.08513083 -0.026197337 -0.060120612
-0.03733579 -0.038766015 -0.036329087 -0.04059138 -0.027621958 -0.035669543 -0.044624873 -0.047253847
-0.09783275 -0.03700909 -0.05334323 -0.045140453 -0.049287364 -0.047413748 -0.03664093 -0.047522634
-0.030760793 -0.021344403 -0.027701763 -0.058805585 -0.081978835 -0.039857205 -0.05250456 -0.02398573
-0.06922357 -0.086956725 -0.05516228 -0.041854776 -0.042179123 -0.098664016 0.004501592 -0.104053885
-0.04538614 -0.033929262 -0.02299495 -0.0141229415 -0.03523421 -0.025621084 -0.042174082 -0.098194845
-0.0093188295 -0.0745787 0.009477916 -0.02463402 -0.024984209 -0.04468406 -0.034959875 -0.03634397
-0.02981842 0.0046228725 -0.050718836 -0.04504099 -0.045379408 -0.017155584 -0.047052003 -0.024944762
-0.0635833 -0.07245084 -0.059955064 -0.0136687895 -0.039936244 -0.004794199 -0.07339571 -0.063965544
-0.018718058 -0.03825543 -0.018204816 -0.018993784 -0.054209534 -0.014301836 -0.003471249 -0.017940326

bn1.running_mean f4 [128]
00000000: 60dc 27be 0105 633e 4360 cf3d ec39 1b3e
00000010: af57 2ebe b50b 233d c4f5 31be d0ed d63c
00000020: 5e62 333e 64d9 0cbd 5797 acbd e684 2ebe
00000030: 4d64 46bd 3664 b0bd b525 8abe 678a 833e
00000040: a9fd a13d 085c d53d 20bc d0bd 8cf7 023e
00000050: 3ff0 923e 13f4 3e3b 5e6f 443e 3716 383d
00000060: f666 8b3d 445c debd 9d3a b63c 2699 20be
00000070: 74db 6c3d ed51 d03b 9e24 afbc e13b f63d
00000080: c19c 8fbc c1b9 a2bd 361d 6c3d 1838 81bc
00000090: d90b 8fbd 3a33 503e 2107 22bd b5c6 44be
000000a0: 65bd 2fbc 5fbb 00be c677 23bc 997d d1bd
000000b0: 3c92 963d df43 87bd dabf 0a3e a333 8f3d
000000c0: 381d 023d d777 dcbd 13ab 243c 641d a93c
000000d0: b51e 2dbe 0882 24be a57b 133e e7f8 1fbe
000000e0: f0e1 30be fc95 c53d 1ba1 323e 61ca 003e
000000f0: 460f 76be 695f 8bbc 59fa 8d3d 34b1 553e
00000100: f753 0b3d 1c1f 83be 3e5f 0b3e 00cd b2be
00000110: 4f49 343d 3c48 ef3d 7dd7 3f3e 360e 2ebd
00000120: 24c8 063e c1a8 70be 3fe8 0abe ff7d e83d
00000130: 1f3b b6be 0e8f 37bd 56ca 13be 2c7c 603d
00000140: 0a8a 58be eb57 c3bd 40a0 31bd 55fe 513e
00000150: 7bd7 0bbd 74c5 7fbc e9a6 3e3e a90d 4fbe
00000160: d8aa 48be 313f cebd 9639 8d3e d391 053c
00000170: 6f83 813c e1d9 0c3d a367 9d3e 3a1e 9a3d
00000180: 4b60 3f3e 76e4 f7bd 2432 683d 908b 5f3e
00000190: 345b b2bd 66f8 cabd 9779 893d 5a1b 8bbe
000001a0: 9239 613d 3f2a 4e3d cf20 b03d 1fc1 53bd
000001b0: 8f1e 833c 5044 8cbc 64d2 80be 8041 b73d
000001c0: b5f9 2ebe d5ce 4fbe 84d7 55be e752 02bd
000001d0: 97b8 2b3d 5d8f be3c 8d8e 5fbb 50c6 00be
000001e0: 6a9a a23d 0b70 4dbe 6435 3b3d 813c 173e
000001f0: 6410 63be 763c 73be 49db 8b3e 01b5 523c
-0.1639266 0.22169878 0.10125782 0.15158814 -0.17025636 0.039806087 -0.17378908 0.026236445
0.17517993 -0.034387007 -0.08427303 -0.17042884 -0.048435498 -0.08612864 -0.26981893 0.2569153
0.0790971 0.10417944 -0.10192132 0.12789744 0.28698918 0.0029137179 0.19183108 0.04494306
0.068067476 -0.10857442 0.022244746 -0.15683421 0.057826474 0.0063574226 -0.021379765 0.1202314
-0.0175308 -0.07945586 0.057645045 -0.015773818 -0.06984682 0.20332041 -0.03955758 -0.19216426
-0.0107263075 -0.12571476 -0.009977287 -0.10229034 0.07352111 -0.06604742 0.13549748 0.06992271
0.031766146 -0.10765045 0.010050553 0.020643897 -0.16906245 -0.16065228 0.14402635 -0.15622292
-0.17273688 0.09647748 0.1744427 0.12577201 -0.24029264 -0.017013269 0.06932516 0.20868379
0.034015622 -0.25609672 0.13610551 -0.34922028 0.044015225 0.116836995 0.18734546 -0.04249402
0.13162285 -0.23501875 -0.13565157 0.11352157 -0.3559198 -0.044814162 -0.14432654 0.05480592
-0.21146408 -0.095382534 -0.043365717 0.20507176 -0.034141045 -0.015611041 0.18618359 -0.20220055
-0.19596422 -0.100706466 0.27582997 0.008152443 0.015809743 0.034387473 0.3074313 0.075252965
0.18689077 -0.12104122 0.056688443 0.21830583 -0.08708802 -0.099106595 0.067126445 -0.27169305
0.054986544 0.050333258 0.08600008 -0.051697847 0.016005782 -0.017122418 -0.25160515 0.0894804
-0.17087443 -0.20293744 -0.20882994 -0.031817343 0.041924085 0.02326172 -0.0034112066 -0.1257565
0.079396084 -0.20062272 0.045705214 0.14769174 -0.22174221 -0.23753533 0.2731574 0.0128605375

bn1.running_var f4 [128]
00000000: 9bed 8c38 a0e2 5838 7b4b a338 0b69 b238
00000010: ee41 8f38 7a08 3538 c74b 9438 1afb bd38
00000020: 9299 d538 6e40 7438 9660 b638 8548 bc38
00000030: 5a21 9e38 5fa2 7738 cd66 a438 6a3f 5838
00000040: a493 a838 5adc bc38 84fe 8738 9f9b b838
00000050: 95d6 8938 8303 ca38 a5ce cc38 69c9 9838
00000060: b826 8d38 6187 7d38 9031 9f38 4773 6738
00000070: f596 8f38 e44e a838 03f1 6c38 9e86 a238
00000080: 7e63 5938 69f1 7b38 c569 9d38 fe14 df38
00000090: 5142 9f38 c632 9738 8aff 7638 8ae4 8f38
000000a0: b838 9d38 b252 a538 091f 8c38 43c4 a038
000000b0: 3021 5638 76ce 6e38 d2a1 9638 01f6 9a38
000000c0: d79c 4a38 c50c 2c38 56a5 bb38 67cf 8c38
000000d0: a566 9938 f3b3 8d38 6ae6 9638 c8c5 ca38
000000e0: 1b1a 9838 7fb1 6f38 055a a138 7a8e c138
000000f0: 5e80 de38 9845 5b38 117b 6b38 e356 8138
00000100: 6e23 8138 a0b8 8438 81fe 9338 ebfd b438
00000110: a141 8b38 f1d3 8138 91e7 8d38 5e22 b038
00000120: ccfa 8c38 5024 3f38 ce91 b738 18e7 8938
00000130: b3c3 c538 d01a 8738 51e0 8b38 24a8 8b38
00000140: cb96 9038 0655 9338 f1f3 8a38 330d 9138
00000150: 5ac2 ad38 9be0 a038 6d36 9738 cb34 b838
00000160: 5002 9938 80f8 c238 885b 7238 4a40 8f38
00000170: 6a97 9338 a187 8c38 8c8d 8e38 84df a238
00000180: 8288 4f38 c055 9d38 dc30 b738 e88b 9938
00000190: 953e c438 72e7 9938 14be 6938 318c 7938
000001a0: a0df 9238 e274 9638 f6cf 4838 7d01 b038
000001b0: e5e7 aa38 b5a4 d638 8af9 b738 e380 cd38
000001c0: 3351 9e38 27e1 9f38 6d58 7438 eb76 a538
000001d0: 5cd1 8938 b591 bb38 d96b bb38 28f4 8538
000001e0: b06d 6b38 872f 9938 b6f4 a438 584a 4c38
000001f0: 4fc8 7538 7a41 9e38 fc53 6e38 5b3e b938
6.719978e-05 5.1709474e-05 7.786505e-05 8.507267e-05 6.831052e-05 4.3161657e-05 7.0713046e-05 9.0589936e-05
0.00010185236 5.8234138e-05 8.696427e-05 8.9780464e-05 7.540239e-05 5.904061e-05 7.8392775e-05 5.1557472e-05
8.0383645e-05 9.005582e-05 6.484709e-05 8.8027904e-05 6.572638e-05 9.632765e-05 9.7659686e-05 7.2854404e-05
6.730616e-05 6.0445982e-05 7.5909426e-05 5.5182052e-05 6.846889e-05 8.025559e-05 5.6491244e-05 7.7498364e-05
5.182949e-05 6.0067894e-05 7.5060445e-05 0.00010637379 7.594063e-05 7.2096984e-05 5.888896e-05 6.86134e-05
7.496908e-05 7.883216e-05 6.681501e-05 7.665951e-05 5.1052484e-05 5.6935904e-05 7.182699e-05 7.389114e-05
4.830662e-05 4.1019888e-05 8.947651e-05 6.714352e-05 7.3147276e-05 6.756922e-05 7.195475e-05 9.66895e-05
7.252787e-05 5.7147347e-05 7.693846e-05 9.2294955e-05 0.00010609695 5.2278483e-05 5.614298e-05 6.167383e-05
6.1577986e-05 6.3286396e-05 7.056911e-05 8.630365e-05 6.640261e-05 6.1906765e-05 6.7665365e-05 8.3987354e-05
6.722435e-05 4.5571767e-05 8.753278e-05 6.5757136e-05 9.430144e-05 6.442296e-05 6.669819e-05 6.659355e-05
6.8945425e-05 7.025343e-05 6.6257904e-05 6.916597e-05 8.285484e-05 7.6712306e-05 7.210379e-05 8.783637e-05
7.296039e-05 9.2969276e-05 5.778254e-05 6.830746e-05 7.037709e-05 6.700983e-05 6.797453e-05 7.766395e-05
4.947978e-05 7.5023156e-05 8.735221e-05 7.321668e-05 9.357665e-05 7.3387186e-05 5.5728553e-05 5.949679e-05
7.003476e-05 7.1743285e-05 4.7877395e-05 8.392611e-05 8.1494254e-05 0.00010234994 8.7726e-05 9.799169e-05
7.5491516e-05 7.623649e-05 5.8256486e-05 7.889963e-05 6.571665e-05 8.943995e-05 8.936943e-05 6.387412e-05
5.613052e-05 7.304461e-05 7.86571e-05 4.8706628e-05 5.8599104e-05 7.546223e-05 5.682184e-05 8.833102e-05

fc2.weight f4 [64, 128]
00000000: 9996 9fbd 9d66 93bd 3b5f 793d b692 863a
00000010: 7915 f23a e0da a1bd 5cb5 a23d dd9c 42bd
00000020: 1751 173d 076a 72bc 6f45 5e3c 93f6 323d
00000030: 0536 dfbc 9d0f 45bd cafb 4f3d 85f3 b7bd
00000040: 1f98 913c 962f 4dbc 2fc7 16bd 9fa3 953d
00000050: 44a9 973c f3d1 cebd 9415 8a3d 6688 37bd
00000060: 7a2d a23d f11b e7bc 19f2 a73d 80b8 d63c
00000070: a0eb eebc b5e0 293d 4071 91bc 43dc 37bd
00000080: 6d82 5b3d 7a47 513d a0af 12bc b164 ce3d
00000090: 2beb 823b 1647 60bd fc98 87bd dfc9 fd3c
000000a0: 5e52 eabc bbb5 253d 7095 babd b570 ecbb
000000b0: 447c 4cbd 763e 0b3d 3b1e 833d a1c2 a33c
000000c0: c880 22bd 0860 b8bd f331 16bd 7e15 80bd
000000d0: 0278 c83d c18c 8bbd 6157 6a3c e083 833d
000000e0: 2b17 bd3c f20e aabd f32d 8cbc 80cc d2bc
000000f0: 3ea2 423d fa3d d8bc 5069 2ebc 93a7 8f3d
00000100: bcdf 243c 065f 043d 5d1b dfbc 6c8f 523d
00000110: 3783 6839 a844 8bbc c7dc 193d cba1 43bd
00000120: 46f3 b6bc 85fe b13c b069 9ebd d5b8 12bd
00000130: 3923 613d 5245 e83b 3286 84bb 03b6 c2ba
00000140: c6dc 28bd 2521 963d acd6 aebc 4379 e3bc
00000150: c453 953d f7b1 a8bd 421e cebc b15e 613c
00000160: f491 b9bc 7ad9 123d aa15 c0bd 2211 e5bc
00000170: c079 01bd a771 973d dc56 f93c 4b4d 95bd
00000180: 4d08 9d3c d4f7 f6bb 0a80 ad3d d0f0 0c3d
00000190: ef29 4cbd 4732 923d 175f f5bc d8f2 46bc
000001a0: e563 b03c 9cbd 8d3d 9fa4 dc3c 6756 d3bd
000001b0: d174 d8bc 49d8 b53d 6493 22bd 6a36 88bd
000001c0: 1c17 95bd ac7d 91bd f08d 3cbd 77cb 213c
000001d0: 8ed8 ed3c 2175 a63d 6d04 663d 08ee 3f3b
000001e0: 3d01 213d fd41 373d b235 ccbd 47e5 fa3c
000001f0: 9311 67bd b185 793d e0ea 4abd d07c b33b
00000200: d4be 883c efa6 223d f218 093d e8c2 e3bc
00000210: 796b 573d cabf 2a3d 738c 80bd b36a f3bc
00000220: 7441 57bd 334b 0dbd 8496 89bc 9c19 443c
00000230: 3d61 443c aa7c 2c3d bee7 fd3d 0502 1a3d
00000240: abbe 0ebd 79bf 02bc 7829 653c 1c4d 64bc
00000250: 24ec 53bd 7ee2 903d 2b9e 6cbd 21cf 473d
00000260: 72f3 6a3d f1ff 69bd b5a6 17bd 7cb1 2ebc
00000270: 1116 bd3c 3bea 073d 18dd ddbc 4723 053d
00000280: 8f3e 0c3d d0cc 9a3c 0331 483d 9cad 01bd
00000290: 5b5b 7e3c 7960 c63d 2646 98bc b63d ca3c
000002a0: 353e 843d 3fce 02bd 5149 1e3d 835b 353d
000002b0: 73c8 c93d b048 913d e9a0 b23c 9620 fa3c
000002c0: f157 0bbd b59c f8bb ce41 3aba 7ac2 a83d
000002d0: e230 74bd a651 c43d 6977 163d 1d03 fb3d
000002e0: e9ce 2cbb a8f0 7f3d 6182 a0bd b3a1 a03c
000002f0: 5f1f a43d eca7 933c 5168 503d 4e7d 26bd
00000300: 1bb6 bb3d 80ea 9ebc 3c11 28bd 112a dd3b
00000310: 47ab 8cbd 0536 85bd d9c4 9cbd ceb7 9c3d
00000320: 2955 a23c 21de 0fbd 8c73 4c3b f01f 38bd
00000330: b86b bdbc 1c10 18bd 4c1a 86bd c4d2 813d
00000340: bfac 253d 53f8 e03c fb9b 18bd 6ef2 aa3c
00000350: 26ad 9dbb fda8 62bc 7a87 b73d b55e c83d
00000360: a922 55bc 6dd8 b23d 95a2 f6bb ffdc 023c
00000370: 67c8 1c3d 49eb f2bb 5475 993d 9b88 8b3d
00000380: 7947 2eba 2e2c dd3b 521d 15bd 76c9 163d
00000390: 2ebe 91bc 59b9 0abd d5f8 263c 3796 02bd
000003a0: 4607 2fbd 0414 093e 072a 623d 681b 573d
000003b0: 612c 10bd d7b9 26bd 963f 0ebc 5167 8e3c
000003c0: 7f64 10bd 7aab b13d af5d a6bc 0ac0 1d3d
000003d0: 6268 ab3d 273e ca3c ff00 de3d 4f0f a43b
000003e0: 8e04 57bc db15 cbbc 67ab a43c 5c82 c6bc
000003f0: 704f b9bc aee8 5dbd 98e9 efbc c86a 4c3c
-0.07792396 -0.07197306 0.060881834 0.0010267112 0.0018469534 -0.07903075 0.07944748 -0.047512878
0.036942568 -0.014795787 0.013566359 0.043692183 -0.027247438 -0.048110593 0.050777234 -0.089819945
0.017772732 -0.012523552 -0.03681105 0.07306599 0.01851333 -0.100986384 0.06742397 -0.044807814
0.0791883 -0.028211566 0.08200473 0.026211023 -0.02916509 0.041474063 -0.017754197 -0.044887792
0.05359118 0.051093556 -0.008953005 0.10077799 0.0039953194 -0.054755293 -0.06620976 0.030980049
-0.028603729 0.040456515 -0.09110534 -0.007215584 -0.049923196 0.033995114 0.064022504 0.019990267
-0.039673597 -0.090026915 -0.03666873 -0.06254099 0.09788515 -0.06813956 0.014303059 0.064216375
0.023082336 -0.08303632 -0.017111754 -0.025732279 0.047518007 -0.02639674 -0.010645226 0.07014384
0.010063108 0.032317184 -0.027234728 0.05140631 0.00022174125 -0.017000511 0.037564065 -0.04776172
-0.022332799 0.02172781 -0.07735002 -0.0358208 0.05496523 0.0070883418 -0.0040443176 -0.0014855269
-0.04122617 0.073305406 -0.021342598 -0.027767783 0.07291368 -0.08237069 -0.025160912 0.013755486
-0.022652604 0.035851933 -0.09379132 -0.027962271 -0.03161025 0.07394724 0.030436926 -0.07290133
0.019168997 -0.0075368676 0.08471687 0.034409344 -0.04984468 0.07138496 -0.029952569 -0.012142859
0.021532008 0.06920931 0.026933966 -0.10319214 -0.02642289 0.08879144 -0.039691344 -0.06651004
-0.072797984 -0.07104048 -0.0460338 0.00987517 0.029033925 0.08127809 0.056156565 0.0029286165
0.03930782 0.044740666 -0.09971179 0.030626906 -0.056413244 0.060918514 -0.0495404 0.0054775253
0.016692556 0.03970998 0.033471055 -0.0278029 0.05259273 0.04168681 -0.062767886 -0.029713964
-0.052552655 -0.034495544 -0.016795404 0.011968996 0.011986074 0.042111076 0.12397717 0.037599582
-0.034849804 -0.007980221 0.013986938 -0.0139344 -0.051738873 0.0707445 -0.05776803 0.048781518
0.057361074 -0.05712885 -0.03702422 -0.010662433 0.023081811 0.033182364 -0.027082965 0.032504346
0.034239348 0.01889649 0.048874866 -0.031659707 0.0155247105 0.096863694 -0.018588137 0.02468763
0.064571775 -0.031934973 0.03864414 0.044276726 0.09852686 0.07093942 0.021805244 0.030533116
-0.034019414 -0.0075870403 -0.00071051426 0.082402185 -0.05961693 0.09585886 0.036734972 0.12256453
-0.0026368445 0.062485367 -0.07837368 0.019608354 0.08013796 0.018024407 0.050880734 -0.040646844
0.09165593 -0.019398928 -0.04103206 0.0067493995 -0.06868606 -0.06504444 -0.07654733 0.076522455
0.019815998 -0.035123948 0.00311968 -0.044952333 -0.023122653 -0.037124738 -0.065479845 0.063390285
0.040447947 0.02746216 -0.03725813 0.020867553 -0.0048119007 -0.013834235 0.08961387 0.09783689
-0.013008752 0.08732686 -0.0075267055 0.00798726 0.038277056 -0.007413302 0.07493082 0.06813165
-0.00066482235 0.0067496514 -0.036404915 0.036813222 -0.01779088 -0.033868168 0.010191162 -0.031881537
-0.042731546 0.13386542 0.05521586 0.05251637 -0.035198573 -0.040704574 -0.008682152 0.01738325
-0.03525209 0.08675285 -0.020308344 0.03851322 0.08369519 0.02468784 0.10840034 0.0050067077
-0.0131236445 -0.024790695 0.020101262 -0.024232082 -0.022620887 -0.05417698 -0.02928619 0.0124766305

fc2.bias f4 [64]
00000000: 2397 ab3d 35c2 ab3d 8e94 8abd 50c9 e33b
00000010: 87eb 8cbd 85c4 533b b9cf 483c 300d 20bd
00000020: 770b db3c 78c2 e3bc cddc 503d b999 883a
00000030: 8f83 753d 7378 743d f019 9e3c 1533 8c3c
00000040: 6960 21bd a012 6dbd 0cec 733d a1a2 6e3d
00000050: ab9b 7c3c fbef 983d ec10 3d3d 7660 6a3d
00000060: c963 88bc 72c4 433c e3db a1bd 0734 a5bd
00000070: 053d 2a3d 254c 5bbd 6b1d 883d 7c6c 90bd
00000080: f609 96bd cd96 94bd 43b3 683d c91f 6ebd
00000090: 7342 99bd 7147 193d 31aa 92bc 9330 acbd
000000a0: 98a2 813d 3ed1 833d ff3a 913d 3618 633d
000000b0: 6ba8 8abd 8e32 1fbd c9d3 0dbd d5d8 afbd
000000c0: 4e25 813d dfe7 11bd 336d 013d eb6a 3abd
000000d0: 4765 a03d ff59 7e3d 2ff5 743d 30a6 303d
000000e0: 6d8f 983d 623b e43c daa8 783c 4a9c a0bc
000000f0: 0200 943d cfb3 aebd 82b1 803d 8549 e1bb
0.083784364 0.083866514 -0.06766616 0.0069514886 -0.06880861 0.003231318 0.012256556 -0.039075077
0.026738865 -0.02780269 0.050991822 0.001042179 0.059939917 0.05968518 0.019299477 0.017114202
-0.039398585 -0.05787909 0.059551284 0.058260564 0.0154179735 0.07467648 0.046158716 0.0572209
-0.016649144 0.011948692 -0.07903268 -0.08066564 0.0415621 -0.053539414 0.06646236 -0.07051942
-0.07326119 -0.072553255 0.056811582 -0.05813578 -0.07483377 0.037421647 -0.01790342 -0.08407702
0.063298404 0.06436394 0.07091331 0.05544301 -0.067704044 -0.038866572 -0.034625802 -0.08586279
0.063059434 -0.03562152 0.03159828 -0.04551212 0.07831817 0.062097546 0.059804138 0.04312724
0.07449231 0.027860347 0.015176976 -0.019605774 0.07226564 -0.085303895 0.06283857 -0.0068752193

bn2.weight f4 [64]
00000000: b781 6e3f 0d91 8e3f d3cb 853f 61f1 853f
00000010: 06cf 7b3f adcb 803f 77e5 863f e8f3 6f3f
00000020: 8ecc 7e3f b707 873f c5cf 923f c619 7a3f
00000030: ccd2 733f c977 893f 125e 753f b13a 673f
00000040: 3f94 6b3f 86c6 6c3f 760d 823f 18aa 873f
00000050: b25e 743f dd1d 783f b9ed 6c3f 92b4 843f
00000060: 1e7a 853f f9eb 6d3f dc4b 783f b8d3 673f
00000070: 2e23 7c3f 98b8 713f 5f0e 733f e024 8e3f
00000080: 0d3e 813f 8fab 673f 20c9 6e3f c92e 963f
00000090: 6e86 813f 382a 6b3f a522 733f 4b62 793f
000000a0: 7abc 6b3f 2acf 723f 7ffc 723f f0c8 823f
000000b0: 306c 893f fc4c 883f d46e 7d3f 9efc 7a3f
000000c0: 83ed 733f fcef 743f 337f 913f be4d 6d3f
000000d0: 0d3d 723f 746e 873f b4a9 833f 2218 8b3f
000000e0: 4f51 743f 00db 743f c733 823f 9c49 6c3f
000000f0: 1e48 793f e28d 753f 087b 8d3f 7f40 753f
0.9316668 1.1138016 1.0452827 1.0464288 0.9836277 1.0062157 1.0538777 0.93731546
0.99530876 1.0549229 1.1469656 0.9769558 0.95243526 1.073968 0.95846665 0.9032393
0.9202308 0.9249042 1.0160358 1.0598783 0.95456994 0.9692057 0.92550236 1.0367606
1.0427892 0.9293819 0.9699075 0.9055743 0.9849118 0.9442229 0.94943804 1.1105003
1.0097061 0.9049615 0.9327564 1.1733028 1.011915 0.91861296 0.9497474 0.9741561
0.9208447 0.9484736 0.9491653 1.0217571 1.0736141 1.0648494 0.98997235 0.98041713
0.9528429 0.9567869 1.1366943 0.9269675 0.94624406 1.0580583 1.0286164 1.086674
0.9543657 0.9564667 1.0172051 0.9229982 0.9737567 0.9591962 1.1053171 0.9580154

bn2.bias f4 [64]
00000000: 9d1b b6bd 3d34 bbbd e2c0 8dbd 799a b2bd
00000010: 654d 84bd 4933 acbd da38 27be 7047 86bd
00000020: c67e e6bd d21d 9ebd 258d 08be 810a b8bd
00000030: c954 4dbd 847e 6bbe e2b9 c1bd ff59 ffbd
00000040: 2916 bbbd 0b30 88bd 0590 2cbe 6673 4bbe
00000050: 01ad 58bd 4a7a 75bd 5091 afbd e679 d2bd
00000060: e812 03be af99 b4bd 11e3 e8bd 772a a8bd
00000070: a97f 00be ee6b acbd fef1 a2bd bac9 00be
00000080: f35a 25bd ec6f c6bd d3cb 73bd 0bc2 0fbe
00000090: f400 3abe 70f8 bfbd 42a2 a3bd 0c6a cabd
000000a0: 36da 99bd 6258 bfbd 98c7 c5bd 9d3e febd
000000b0: 963b 6bbe 013b a5bd 31e5 cdbd f0f0 14be
000000c0: 7de5 6ebd 4101 9ebd 8b0e 56be 1dfc 04be
000000d0: 43a0 acbd b89b e6bd 18bf 57bd 2153 b5bd
000000e0: 3042 a7bd 44e4 c1bd bb96 ddbd f66c c0bd
000000f0: 6050 a8bd 2eb3 84bd 09c6 11be 6b22 fcbd
-0.088919856 -0.09140823 -0.06921555 -0.087208696 -0.06460074 -0.08408219 -0.16330281 -0.06556594
-0.11254649 -0.077205315 -0.13335092 -0.089863785 -0.050129686 -0.2299748 -0.094592825 -0.12468337
-0.09135086 -0.066497885 -0.16851814 -0.1986824 -0.052899364 -0.059931077 -0.08572638 -0.102771565
-0.12800181 -0.08818375 -0.113714345 -0.082112245 -0.12548698 -0.084190235 -0.079563126 -0.12576953
-0.04036994 -0.09689316 -0.059520554 -0.14038865 -0.18164426 -0.093735576 -0.079899326 -0.09883508
-0.075123236 -0.093430296 -0.0965721 -0.12414286 -0.22971949 -0.08067895 -0.100534804 -0.14545035
-0.058324326 -0.07715083 -0.20903985 -0.12986799 -0.08429005 -0.1126017 -0.052672476 -0.08853746
-0.08166921 -0.09467366 -0.10819765 -0.09395783 -0.08218455 -0.06479488 -0.142357 -0.12311252

bn2.running_mean f4 [64]
00000000: cc8e 213d 8eab 0b3f df0c 743e 07b3 233f
00000010: c22d c23e b904 043f 0eef 313f a91e 7fbe
00000020: acf9 323f 6aed cb3e 4a31 583f dc85 5d3e
00000030: 7e37 b93d e472 153f 67fb 0c3e e763 e0be
00000040: 91c4 d4be 0925 3fbe 0181 123f f2f0 293f
00000050: 5119 6fbe aafc a93e 62dd c43d 1e22 e83e
00000060: 9e19 0b3f c767 743e 0e80 033e 5f80 8fbe
00000070: ca48 c03e 3143 89bd 2c52 703d 12fb 1e3f
00000080: c66a c83e d970 b2be 4e89 3bbc b80a 1d3f
00000090: 2c2f 8e3e 2e45 88bc f754 823d 422d 3d3e
000000a0: 2f7e afbd 8afc cd3e d976 063f 43fe 103f
000000b0: c905 db3e 2435 003f 7860 413e f4a0 643e
000000c0: 35d0 dcbe 06d7 a63e 54a7 3f3f 2a6b 68be
000000d0: 2726 6c3e 1cbd 223f f77a b13e 720b ee3e
000000e0: 005b 30be 3869 003f 6c19 cd3e 8520 afbd
000000f0: cae9 b73e d4df 8c3e 8812 f53e 0a28 313d
0.039442822 0.54558647 0.23833035 0.6394505 0.37925535 0.51569706 0.69505394 -0.2491404
0.6991222 0.3982957 0.8445021 0.21633095 0.090437874 0.58378434 0.13767777 -0.4382622
-0.41556218 -0.18666472 0.57228094 0.6638328 -0.23349501 0.3320058 0.09612538 0.4533853
0.54335964 0.23867713 0.12841818 -0.28027627 0.37555534 -0.06702269 0.058672115 0.6210185
0.39143962 -0.3485172 -0.01144631 0.6134448 0.27770364 -0.01663455 0.06363862 0.18474296
-0.085689895 0.40231735 0.525251 0.5663797 0.4277785 0.50081086 0.18884456 0.22327024
-0.431276 0.32585925 0.748647 -0.2269713 0.23061429 0.6356981 0.34664127 0.46493107
-0.17222214 0.5016055 0.40058458 -0.085511245 0.35920554 0.27514517 0.478657 0.043251075

bn2.running_var f4 [64]
00000000: 75bd 113e 35ba 4b3f b779 203f fdb0 553f
00000010: 378c dc3e 47fe 0b3f 938e 743f 332e a83e
00000020: f733 223f 458c 243f f5be 8c3f 3d74 e73e
00000030: 9778 363e 9276 833f 2d2d cc3e c2b5 953e
00000040: 05be 9e3e c5b5 873e 5ba5 393f adb2 483f
00000050: 898b 963e b1b7 4d3e 5ec7 413e 26ca 1d3f
00000060: 489a 3b3f 5bec 883e e95b b33e cf1c 353e
00000070: 8ae5 dd3e 9351 843e 0fd7 463e 83e0 863f
00000080: 868c d83e bdfc 323e cffd 423e 6b30 713f
00000090: ae6b 3d3f ba6b 8a3e fa75 3e3e cd57 793e
000000a0: e329 273e 5f0a 8d3e 8b9c b03e 1664 1a3f
000000b0: ff88 3f3f 61c9 393f ff53 f53e 2a6c 093f
000000c0: 6e25 523e 75b6 d83e 390f 663f ee7b 573e
000000d0: a551 603e c3db 513f 32d3 083f ad2e 343f
000000e0: 95a0 c93e 697a ca3e f2af 113f c08e 433e
000000f0: 7038 9c3e 9b34 8e3e 5ad6 4e3f 271e 643e
0.14232428 0.79581004 0.6268572 0.8347319 0.43075725 0.5468487 0.9553005 0.32847747
0.6336054 0.64276534 1.0995775 0.4520587 0.17819439 1.027056 0.39878216 0.29240233
0.31004348 0.26505867 0.7251794 0.7839764 0.29403332 0.20089604 0.18923709 0.6163658
0.7328229 0.26742825 0.3503106 0.17686771 0.43339187 0.25843486 0.19417976 1.0537266
0.4229471 0.17479225 0.19042133 0.94214505 0.7399243 0.27035314 0.18599692 0.243499
0.16324572 0.27546975 0.34494433 0.6030897 0.74818414 0.72572905 0.47915646 0.5368067
0.20522091 0.42326704 0.8986698 0.21043369 0.21906145 0.81975955 0.5344726 0.7038372
0.39380327 0.39546517 0.56909096 0.19097424 0.30511808 0.2777451 0.80795825 0.22277127

fc3.weight f4 [32, 64]
00000000: cb78 e5b9 51d9 adbd c476 8bbd a7a9 92ba
00000010: 45cc 9fbc 38d1 6b3c 8dae 0abd 3cc4 4cbd
00000020: 463f cb3c 9b41 86bd e973 ffbd 7c9d 8dbd
00000030: 4e3a 1e3d 4f12 3fbe d019 adbd f3bd 0fbc
00000040: 507c b3bc 74dc b2bc 189f 31be 6ff8 14bd
00000050: 4649 023c e05d 173b 50d5 a83c ff55 8abc
00000060: 391c 69bd c534 713d a5ec a43c c677 5e3b
00000070: b5e3 493c 0087 83bc dad3 bf3c d188 9abd
00000080: 5c0c 6d3c 8516 f93c 2324 423d 91e5 e4bd
00000090: 9c41 31be 16bb 6fbb a0c3 85bd ea94 1abd
000000a0: 3ea8 a53c 9f3e a3bd 907b a23d ea9b 14be
000000b0: f0fb 32be f731 b13d 3323 993c 79e4 85bd
000000c0: a8d8 523c de73 b4bd 1a0a f5bd 07b8 92bd
000000d0: 1c1d 96bc 1a74 33be 43bf a63d 53fc e8bd
000000e0: 4619 3f3c a11b 5ebd f03d 91bd f436 e13c
000000f0: af79 193d b286 f03c 6da1 32bd 8cad 52bd
00000100: bcba 623d 4270 9c3d 9ff5 2bba 7b9b 883d
00000110: e99b 86bd eb4f 81bd 6305 00be 6128 1fbd
00000120: 1da9 8bbc 0211 b8bd fdcc a7bd 9d7f 35bd
00000130: ea93 8f3d e6a3 52bd 1519 ac3d be45 b83c
00000140: 8b30 ac3c 29d8 2a3d e9ac 29be d3d2 dfbd
00000150: ab26 38bd bd01 bb3d f965 ee3c 631f 94bd
00000160: 89a5 febd 397a 143d a184 393b e8ad 79bd
00000170: 3eca 0bbe 163c 8cbc df98 523d 606a 1cbe
00000180: cf29 55bc a431 253d 31f2 0f3d c052 26bd
00000190: 1bc9 11bd 7b56 923c 393d f93c 0b26 7b3d
000001a0: e17b 0e3d 5599 3b3d 3e21 a93d 9d11 f1bd
000001b0: 2556 fcbd 9bdf 203d b9ae 5cbc 9e8f 9bbd
000001c0: 40f2 533d 8ef1 c8bd e744 dcbd ca4e 663d
000001d0: b0ad 08bd 1f15 d1bd 45e1 7e3d 879c 8bbc
000001e0: c863 f3bc 7133 aebd 505e 74bd 9263 613c
000001f0: 9fcd dfbd 231c e23b 49b7 18be f189 233d
00000200: 1e79 a13d 04ff 4f3d a6b7 50bd 2cd3 28be
00000210: 122c a7bd 9c90 80bc 6182 23be a86a 953d
00000220: 6226 433c 2f17 873d 5a22 1cbe cfc6 84bd
00000230: da9d 64b8 2536 7dbd 23b8 8dbd 5b34 c43d
00000240: cecc 323d dfd3 44bc f2b1 8e3d f4e3 37be
00000250: cff4 67bd 3826 36bc 8f29 a73d 8c04 5f3d
00000260: 8476 cabd 094c 633d b87f 1e3d f2dc 84bc
00000270: fd91 bc3c 9bbc 8c3d c768 343d c5fb b4bd
00000280: 0300 c2bd b93f a0bd f67a 03bd 11f6 1dbe
00000290: 22c2 aa3b f877 183d 3a16 e5bd 7863 e7bd
000002a0: 6475 cc3d b9dd 8cbd 5843 343c 2510 d5bd
000002b0: b7f5 a2bd b71f f93c 55d3 fcbc 1f2c 3e3d
000002c0: e3b8 6e3c 1fab b9bd 6922 abbd 9bfc 823d
000002d0: 2e7e 6c3b 8af0 74bb 9959 933c 665b 4e3d
000002e0: 1853 b83c 95ef 83bb 3881 9bbd 1483 c73d
000002f0: 2043 eabd f926 a2bd b986 f1bb 2c0c e5bd
00000300: 0ca8 dabd c375 2fbe 3d70 7bbc 894f dfbd
00000310: ee46 c93d de1b aabc 9bc8 7fbd 8422 aabd
00000320: 0959 6ebd 0d90 4b3d 9d4c fcbd 691a f6bd
00000330: f1fc 103c 663b 3a3d 6e3e e1bd 4f09 a5bc
00000340: 5d46 053e 0f96 2abd 6f3f e43c f69f 8bbd
00000350: 6320 59bd 8b00 01be c7f0 793d 6d95 e43c
00000360: d216 ea3c db79 a33c f96d 203d 59fa 6a3d
00000370: 5c59 303d 581a bf3d 8ede 513d 2e9c 773a
00000380: f66b 093c 12cd b5bd 52fa e83c 567f 06bb
00000390: 3c06 f03c cc11 ffbc d11b d43d 7b9b b63c
000003a0: 531a 5ebc 4323 a83b d015 49bd 0b28 8dbd
000003b0: b8ca 713d 3426 a7bc 7515 fabc 2698 57bb
000003c0: 1864 693d cb23 03be a1c6 bcbd acf7 c13d
000003d0: 15d6 7d3c 9938 203c c06e 70bd 7afc 22be
000003e0: 0c0b 263d 6012 633d ac1d 10be 0e3f d9bd
000003f0: 1b9e 5bbd bcd7 643d 60a0 10be 5761 b43d
-0.00043768281 -0.084887154 -0.06809762 -0.0011189476 -0.019506583 0.014393143 -0.03385787 -0.04999183
0.024810445 -0.06555482 -0.1247328 -0.069148034 0.038629822 -0.18659328 -0.08452189 -0.008773315
-0.021909863 -0.021833636 -0.17345846 -0.036369737 0.00795204 0.0023096725 0.020609528 -0.01688671
-0.05691168 0.058888216 0.020132372 0.0033945902 0.012322356 -0.016055584 0.023416448 -0.07545627
0.014468279 0.030406246 0.047397744 -0.11176599 -0.17310184 -0.0036580018 -0.06531453 -0.03773967
0.020221826 -0.079709284 0.07933724 -0.14512601 -0.17478919 0.08652108 0.018693542 -0.06537718
0.012869038 -0.088111624 -0.11964817 -0.07164007 -0.018324427 -0.17524758 0.08141949 -0.11376252
0.0116637405 -0.054225568 -0.07091892 0.027492024 0.037469562 0.029361103 -0.04361098 -0.05143504
0.055353865 0.07638599 -0.0006559733 0.066702805 -0.06572706 -0.06314071 -0.12502055 -0.038856868
-0.017048413 -0.08987619 -0.08193395 -0.044311155 0.07010634 -0.051425837 0.084032215 0.022494193
0.02101924 0.041710053 -0.16569866 -0.109288834 -0.04495875 0.09131191 0.029101359 -0.07232549
-0.12433917 0.036249373 0.0028307813 -0.060956866 -0.13651368 -0.017118495 0.05141532 -0.15274954
-0.013010456 0.040330544 0.03514308 -0.04060626 -0.03559218 0.017863503 0.030424701 0.061315577
0.03478611 0.045800526 0.082582936 -0.117709376 -0.12321118 0.039275747 -0.0134693915 -0.07595752
0.0517447 -0.09811698 -0.107553296 0.056227483 -0.033368766 -0.10209107 0.062226553 -0.017042411
-0.029710665 -0.085059054 -0.059660256 0.01375665 -0.10927891 0.006900327 -0.14913668 0.039926473
0.078844294 0.05078031 -0.05095639 -0.16486806 -0.081627026 -0.015693955 -0.15967704 0.07295734
0.011911007 0.06596219 -0.15247479 -0.06483232 -5.4506447e-05 -0.061819214 -0.06919887 0.095802985
0.04365235 -0.012013405 0.06967534 -0.17958051 -0.056629952 -0.0111175105 0.081622235 0.054447696
-0.09885886 0.055492435 0.03869602 -0.016218636 0.023018831 0.06871911 0.044045236 -0.08837084
-0.094726585 -0.07824654 -0.032099687 -0.15425898 0.0052111307 0.037223786 -0.1118588 -0.11298269
0.09983328 -0.06878228 0.011002384 -0.1040347 -0.07957023 0.03041063 -0.03086249 0.046428796
0.014570448 -0.09065842 -0.083561726 0.06395837 0.003608595 -0.0037374818 0.01798706 0.050380133
0.02250056 -0.004026363 -0.07593006 0.09741798 -0.11438584 -0.0791759 -0.0073707965 -0.11183962
-0.10676584 -0.17134766 -0.015346584 -0.10903842 0.09827982 -0.020765241 -0.06244717 -0.083073646
-0.05819038 0.049697924 -0.123193 -0.12016756 0.008849368 0.045466803 -0.10998236 -0.02014604
0.13015123 -0.041647013 0.027862279 -0.068176195 -0.053009402 -0.12597863 0.06102064 0.027903283
0.028575335 0.019955566 0.039167378 0.057367656 0.04305397 0.093311965 0.051237635 0.0009445575
0.008387556 -0.08877005 0.028439675 -0.0020522675 0.029299848 -0.031136416 0.10356868 0.022290936
-0.013556081 0.0051311566 -0.049093068 -0.06892403 0.05903122 -0.020403959 -0.03052781 -0.0032897084
0.056980222 -0.12806623 -0.09217573 0.09471068 0.015492936 0.009779119 -0.05869937 -0.15916625
0.04053788 0.055437446 -0.14073819 -0.1060773 -0.053617578 0.055869803 -0.14123678 0.088076286

fc3.bias f4 [32]
00000000: 89b6 36bd 74f6 4c3d fde7 57bd da2e dfbc
00000010: 7dcf efbd a50f 90bc 0595 bf3d 5a16 443d
00000020: f5af bcbd 6939 cdbd 4ca1 c53d 832c 59bd
00000030: a2d2 cbbd 13d7 51bd dd15 863d 0bda 6d3c
00000040: 7883 80bd e09f 843d 93eb 003e 58d0 d73c
00000050: 4286 bdbd 743a 0ebd dccd f8bd b1e0 d03d
00000060: 328d a6bd 749a 62bb 57c5 9bbd b649 85bb
00000070: 4b7a b7bd 2314 cbbd fd2a b9bd 2d63 583d
-0.044607673 0.050039724 -0.052711476 -0.02724402 -0.11709497 -0.017585585 0.09354595 0.04787288
-0.09213249 -0.10020716 0.096499056 -0.053020965 -0.099522844 -0.0512305 0.06547139 0.0145173175
-0.06275076 0.06475806 0.12589864 0.026344463 -0.09254123 -0.034723714 -0.121486396 0.101991065
-0.081323996 -0.0034576925 -0.07605999 -0.004067625 -0.089588724 -0.0991595 -0.090414025 0.052828956

bn3.weight f4 [32]
00000000: 76f5 5f3f 2fc2 683f 736e 753f 2c75 723f
00000010: e25d 663f 20d5 7c3f d64f 773f 43d9 633f
00000020: b347 703f d691 6d3f 6f35 653f bada 743f
00000030: 17a8 713f 47e1 743f 6ea6 7b3f dd55 6d3f
00000040: d7f0 703f 2166 633f 52c2 753f 81c3 743f
00000050: 45b5 683f 821b 723f 6d5b 663f cd4a 6c3f
00000060: 9058 6e3f 2b34 7a3f 0c2a 6d3f 25c8 7b3f
00000070: 1367 6c3f 417f 783f 05a0 793f 3d51 763f
0.8748392 0.909213 0.9587166 0.9471004 0.89987004 0.987627 0.96606195 0.8900339
0.93859404 0.92800653 0.8953466 0.9564625 0.9439711 0.95656246 0.98300827 0.9270914
0.9411749 0.8882771 0.95999634 0.95610815 0.90901595 0.94573224 0.89983255 0.92301637
0.93103886 0.9773585 0.92642283 0.9835227 0.9234478 0.97069174 0.97509795 0.9621771

bn3.bias f4 [32]
00000000: 75b1 53be ae86 e3bd e6e2 47bd c1bc d0bc
00000010: 6b38 cabd 1662 28bd 6b67 d2bc 6e92 63be
00000020: 9791 8fbd c586 bdbd 2fc2 2dbe 39c3 36bd
00000030: 6b92 56be fd26 16be 68da 56bd e23c 27bd
00000040: 2bb3 49bd b06d 37be 4db6 11b9 48d5 05bd
00000050: 2d3f d9bd 3ca4 91bd a4e8 b1bd e8d5 bdbd
00000060: 4691 a2bd 24df 0fbd be9b cabd 8b93 a23b
00000070: 1039 e5bd 9cbe a0bc 7ca4 b3bc 2a8c 26bd
-0.20673163 -0.111096725 -0.04880037 -0.02548063 -0.09874042 -0.041109167 -0.02568408 -0.22223827
-0.07010191 -0.09254221 -0.16968606 -0.044619773 -0.20954292 -0.1466331 -0.052454382 -0.040829547
-0.049243134 -0.17912936 -0.0001389619 -0.032674104 -0.10607753 -0.07111403 -0.08686951 -0.09269315
-0.07937865 -0.035124913 -0.09892987 0.004961436 -0.111925244 -0.01962214 -0.021929018 -0.040661015

bn3.running_mean f4 [32]
00000000: b35d f1be 1e26 41be 4907 acbe 629c 7abe
00000010: 3d09 a4be 0214 04bf addb ae3c bfc7 98be
00000020: 7583 9fbe 3e85 cebe cc91 4fbe 0970 33be
00000030: 1df4 1abf 6bd3 cfbe fe80 86be dc14 97bd
00000040: 8450 d3be 4ce0 c0be 58c4 653e b6e3 36bd
00000050: 6e66 9fbe 9dc7 12be 970e 9ebe 1c57 59bd
00000060: 2a17 9ebe 072f 05be 5b45 69be 07b0 15bd
00000070: 4f60 b6be 6d24 bdbe 0b6c 81be e05d 7cbb
-0.471418 -0.18862197 -0.33599308 -0.24473718 -0.32038298 -0.5159303 0.021344984 -0.29839894
-0.3115498 -0.4033603 -0.20270461 -0.17523207 -0.6052874 -0.40590987 -0.26270288 -0.073770255
-0.41272366 -0.37671125 0.2243818 -0.044650756 -0.31132835 -0.14333959 -0.30870506 -0.05306159
-0.30877048 -0.13006221 -0.22780363 -0.036544826 -0.35620353 -0.36941853 -0.25277743 -0.0038508102

bn3.running_var f4 [32]
00000000: 1e77 7140 2735 3640 687f 1440 5b0e 953f
00000010: 4432 c83f 7f96 3040 dbaf 2b3e 4c48 5140
00000020: a0f3 213f 149a c13f e9cb 1340 1080 ef3e
00000030: addc 8140 67cd 2e40 92f0 0740 cab8 2d3e
00000040: b0f8 0e40 ebfb 5440 d24d be3e 7788 853e
00000050: 5899 0040 a887 a43f 5775 d93f 3a7d 643f
00000060: 0c00 a63f 3b24 a03f 1ed0 b03f 0cbc a43e
00000070: 26fa f83f 229f d83e 3956 d93e dee4 033f
3.7728953 2.8469942 2.3202763 1.1645006 1.564034 2.7591856 0.16766302 3.2700377
0.6326237 1.5125146 2.3093207 0.4677739 4.058188 2.7312868 2.1240582 0.16965023
2.2339287 3.3278759 0.37168747 0.26080677 2.0093594 1.2853899 1.6988934 0.8925358
1.2968764 1.2511057 1.3813512 0.32174718 1.9451339 0.4230891 0.42448595 0.515211

fc4.weight f4 [1, 32]
00000000: be03 05bd 4274 a53a f446 823a bd50 1d3a
00000010: 52c1 d839 bba0 903a 300d df38 311b 29bd
00000020: 35c9 a739 08e4 92b8 2aca 5cbb 297d f439
00000030: 8fec 483c ba07 643a 47f4 85b9 8a67 ccb8
00000040: 1ac1 3939 04d0 0bbc 03d3 503a 4c67 f8b8
00000050: 040e 113a 0dff b038 9dbe 223a 8c63 bab9
00000060: e7eb af39 345a bc3a a997 01b9 06f2 cdb9
00000070: aebf 0c3a b60a 9d39 567f 19ba 9cc3 ef39
-0.032474272 0.0012623149 0.0009939359 0.00060011056 0.00041342765 0.001103423 0.00010635925 -0.041285697
0.00032002633 -7.004297e-05 -0.0033689835 0.00046632558 0.012263431 0.0008698661 -0.00025549738 -9.746764e-05
0.00017714911 -0.0085334815 0.00079660135 -0.00011844802 0.00055333995 8.439841e-05 0.0006208213 -0.00035550853
0.00033554362 0.0014370144 -0.00012358896 -0.00039280968 0.00053691387 0.00029953354 -0.00058554613 0.00045731373
