trained_models/nn_flow_model.pt (torch, 59998 bytes, 13 tensors)

model.0.weight f4 [128, 34]
000000 55 a3 99 be e0 16 4c be 66 35 c7 3e ac e1 2c bd
       -0.30007425 -0.19930601 0.38907927 -0.042207405
000010 88 fc e2 3e d3 3d 1f bc 63 a6 cf 3d 63 ca 40 be
       0.4433329 -0.00971933 0.101391576 -0.18827204
000020 97 c9 6f 3e 1c 85 a1 bd 51 ea 21 3e 28 cd 60 3e
       0.23416744 -0.07886717 0.15812041 0.21953261
000030 65 cc cb bc 01 38 59 3e c1 bb 0a be db 74 78 be
       -0.024877736 0.2121277 -0.13548185 -0.24263327
000040 5a ce 81 3e 24 e2 53 bf 37 e2 1b be ff 8c ed be
       0.25352746 -0.8276694 -0.15223013 -0.46396634
000050 82 9a 19 3e e0 eb 52 be a6 d4 9d 3d 04 b8 ec 3c
       0.15000346 -0.20597792 0.07706575 0.02889634
000060 b8 e4 df 3c 99 f1 c9 be d3 ba aa 3e 42 44 2b 3f
       0.027330741 -0.39442137 0.3334566 0.6690103
000070 3c 80 1e bf 69 3d 2c 3e a4 18 07 3f 62 45 6b 3d
       -0.6191442 0.16820301 0.52771974 0.057439215
000080 41 07 91 3b e9 16 a6 3e b6 ce 6d 3e cd b4 30 3e
       0.0044259136 0.32439354 0.23223385 0.1725647
000090 66 3f f7 3d 8d 51 07 bd 2f 9d 34 b9 dd f3 ac bd
       0.12072639 -0.033036757 -0.00017224693 -0.08444951
0000a0 4f 52 eb bd 46 c5 2a be 78 a8 50 3c 81 83 af bc
       -0.114903085 -0.16676816 0.012735479 -0.02142501
0000b0 74 63 ed bd a9 a3 90 3d df 8d 5f bc 96 60 c7 bd
       -0.11591235 0.07062466 -0.013644665 -0.09735219
0000c0 78 12 4f be 85 09 f4 bd 20 fe 01 3c 50 69 25 be
       -0.20221889 -0.11915878 0.007934123 -0.16153455
0000d0 bf 84 71 bd 0b 97 2b 3d 13 2b 9d 3d 5a 2b df bd
       -0.058964487 0.041892093 0.076742314 -0.108969405
0000e0 d1 aa 3f 3d 61 c7 98 3d ab 35 6d be 7a 58 b6 3d
       0.046793763 0.074599035 -0.23165004 0.08903594
0000f0 1a f3 07 3e fc 1d 85 bc 6c e4 0e be f1 70 da bb
       0.1327633 -0.01624965 -0.13954324 -0.0066662957
000100 46 cb 1e 3e 60 ff c5 3c ae 92 30 be 6e 07 c9 3e
       0.1550723 0.024169624 -0.17243454 0.3926348
000110 cf 8d 5d 3e dd 27 5c be 94 c3 20 3e 9b fb 95 3d
       0.21636127 -0.21499582 0.15699607 0.073233806
000120 fe b3 81 be 94 bf a4 be 9d ff dc bd da c3 91 3d
       -0.25332636 -0.32177413 -0.10790942 0.07117434
000130 52 72 d8 3c 71 ac d1 3e 95 c1 ce 3d 8e b2 09 3d
       0.0264217 0.40951875 0.100955166 0.03361755
000140 6f a0 8f 3e 8e d9 84 be 99 54 41 bd 21 d8 45 bd
       0.2805209 -0.2594723 -0.04719982 -0.04830182
000150 6a f5 b3 be d9 42 3b 3e 69 c3 c2 3e 13 bd 96 be
       -0.35148174 0.18287219 0.3803971 -0.29441127
000160 77 80 1f be 7b 43 c5 bc 3f 36 1a be 86 7f 43 be
       -0.15576349 -0.024080029 -0.15059756 -0.19091615
000170 54 95 40 3e 99 7e 2b be 2c e7 d5 bd 46 6f c1 ba
       0.18806964 -0.16747512 -0.10444483 -0.0014757894
000180 12 4a ee 3d fe 8a 93 3d 35 14 f5 3d e2 1b 6d be
       0.116352215 0.07204245 0.11966745 -0.23155168
000190 2f 62 d3 bc 6c b5 54 bf c5 00 a3 3e c1 65 5c 3e
       -0.025803654 -0.8308933 0.31836525 0.21523191
0001a0 91 05 7d be a1 6b 62 be f4 e8 8f 3d 23 5e 00 be
       -0.24709155 -0.2211137 0.07026854 -0.1253591
0001b0 4d 06 bc 3e 65 05 58 3e 5b 4e 0e 3e 75 09 19 be
       0.36723557 0.21095808 0.13897078 -0.14945014
0001c0 c2 a7 00 be 4a 24 d6 be a8 17 06 bd 79 0a 6a 3d
       -0.12563995 -0.4182456 -0.032737404 0.057138894
0001d0 d2 65 bc 3c bc 13 1c 3d 79 5c 62 3e 60 6c 27 bf
       0.02299777 0.038104758 0.22105588 -0.6539974
0001e0 36 57 b9 be 45 18 d5 bd 55 d9 06 3e 41 2e 1f be
       -0.3619935 -0.1040502 0.13168843 -0.15544988
0001f0 f2 34 a2 3e 37 54 b3 3e 79 c4 30 3e f6 7d 0f bd
       0.3168102 0.35025188 0.17262448 -0.035032235
000200 03 99 9e bd ab 8f 07 3e 71 20 1f 3e 21 e0 8d bd
       -0.077440284 0.13238399 0.15539719 -0.06927515
000210 e2 c1 7c 3e 94 fc 14 be 6c a6 3f 3f 45 52 3c bb
       0.24683335 -0.14549476 0.74863315 -0.002873556
000220 9d 09 16 bf 71 bd a6 be c5 f3 36 bf db df 66 3e
       -0.5860842 -0.32566407 -0.7146571 0.22546332
000230 36 fe b6 be 02 a1 21 3e a5 59 d8 bd a2 6f 68 3e
       -0.35740823 0.15784076 -0.10563973 0.22698835
000240 8c a6 29 3e 58 aa ce 3e d1 da 86 be 12 c7 b5 bc
       0.16567439 0.40364337 -0.2633882 -0.02218965
000250 5e 55 90 3e 3b e8 b1 be e6 4f 5e bd 57 d8 9d be
       0.2819013 -0.3474749 -0.054275416 -0.30829117
000260 fe 5c 0e be 80 2e 95 3d 06 f3 69 3e 8c fd 70 3e
       -0.13902661 0.0728426 0.22846612 0.2353422
000270 47 f3 09 bf 7f 6c 8a 3d dc 17 74 3e a7 95 ac be
       -0.53886837 0.06758975 0.23837227 -0.33707926
000280 a5 65 b4 3e 07 8c 26 bf 38 c9 ba be 78 45 1b 3d
       0.352338 -0.65057415 -0.36481643 0.037908047
000290 7c 0a 27 bd ca 1d 12 be 80 a8 16 be 43 c4 84 3e
       -0.040781483 -0.14269176 -0.14712715 0.25930986
0002a0 d7 59 81 3e 57 97 df bd 13 a5 0d 3e 02 4e 38 be
       0.25263855 -0.10917538 0.13832502 -0.17998508
0002b0 57 c4 81 bc 39 c2 ad 3b f1 f1 b3 be d2 0a d5 3d
       -0.015840692 0.005302694 -0.35145524 0.104024544
0002c0 34 cc 59 be 31 29 58 3e 80 82 48 3d 0e 7f 05 be
       -0.21269304 0.21109463 0.04895258 -0.13036749
0002d0 d6 f9 16 3d ef d2 9f 3b 70 37 0c 3e b9 b6 17 3a
       0.036859356 0.00487744 0.13693023 0.00057874207
0002e0 69 48 89 3c 87 d4 29 be 16 e1 fe 3d f4 4c 06 3d
       0.01675816 -0.16584979 0.124452755 0.032788232
0002f0 b7 c5 f7 3d ac 88 15 3e 43 b2 8c be 5f d9 5b 3d
       0.12098258 0.14602917 -0.27479753 0.053674098
000300 bb 96 9d 3e 39 f1 cd bc 68 40 74 3e cf 53 df bd
       0.3077906 -0.025139438 0.23852694 -0.10904657
000310 54 84 c2 3d a5 d0 57 3e 56 a1 82 3c a9 88 45 3e
       0.09497896 0.21075685 0.015946072 0.19290413
000320 65 cb f2 bd 23 2e 32 bd 95 1b b0 be 80 20 1e 3e
       -0.11855201 -0.04350103 -0.34396043 0.15442085
000330 d9 6c 86 bd 07 76 a8 3e 0c 3d d9 be 27 3a 84 3e
       -0.0656373 0.32902548 -0.42429388 0.25825617
000340 35 73 47 3c 81 76 75 bc 70 d6 ae 3d 93 26 2e 3e
       0.012173464 -0.014981867 0.085369945 0.17006902
000350 fe d2 1d be 0b 7d cc 3d fe 8a 13 be ae d1 49 bc
       -0.15412518 0.099847876 -0.1440849 -0.012318058
000360 33 56 f0 3d 67 d2 11 3e f6 ce b3 3c af ac 16 3e
       0.11735191 0.14240418 0.021949273 0.14714311
000370 5d 2f 7e bd 5b 42 1a bf 87 4b bf be 55 1b 7e bc
       -0.062056888 -0.602575 -0.3736231 -0.015509446
000380 a1 a3 42 be 15 15 78 be 1d f8 62 3e de f4 78 3d
       -0.19007732 -0.24226792 0.2216496 0.0607804
000390 cd e4 99 3e f1 52 8c 3d 12 77 57 be b9 44 2a bd
       0.30057374 0.06851757 -0.21041515 -0.041569445
0003a0 2f 63 a7 3e e8 6e 03 3d 98 35 52 3d 7e 95 48 be
       0.3269286 0.03208819 0.051320642 -0.19588277
0003b0 fb d3 62 3f f9 b7 3a 3d b6 09 99 bd 96 09 1c be
       0.88604707 0.045585606 -0.07472555 -0.15238032
0003c0 15 fb ea 3c 72 b7 ae 3e e2 14 7c be 95 b0 16 3b
       0.028684178 0.34124333 -0.24617341 0.0022993435
0003d0 3a d6 e0 bd c1 8b 25 3e 71 ac a1 be 06 bf 78 be
       -0.109783605 0.16166593 -0.31576875 -0.2429162
0003e0 49 a1 b3 bd 06 0e 0b 3d 92 65 81 3e d2 24 37 be
       -0.08770997 0.03394892 0.25272804 -0.1788514
0003f0 b6 a5 57 3d 68 d5 28 3e 7d 2f 79 3c ef 15 1e be
       0.05264827 0.16487658 0.015209076 -0.15438055

model.0.bias f4 [128]
000000 b5 ae 5c bd 50 9e 5e bd d2 72 1d 3e 29 c4 29 3e
       -0.05387755 -0.054350197 0.15375832 0.16578735
000010 b6 e0 1e 3e 3c e4 1b 3d 64 5c cd 3d 07 30 16 be
       0.15515408 0.038059458 0.10027388 -0.14666758
000020 30 88 1f 3e 0d 1c 20 be c1 eb 85 bd 4c b4 a2 3d
       0.15579295 -0.156357 -0.06539107 0.07944545
000030 4a 63 3c 3d 69 af 07 3d 55 fd 51 3d b0 34 12 be
       0.045993127 0.03312627 0.051266987 -0.14277911
000040 ed 96 da bc cb 69 14 3d 95 07 11 be 22 8b e8 3d
       -0.026683295 0.036233705 -0.14163049 0.113546625
000050 58 d6 d5 bd b7 55 13 3e 40 c2 bb bc 34 72 fd bd
       -0.104412735 0.14388166 -0.022919774 -0.12375298
000060 2b ef 2e 3e 84 2a ff 3c be e8 f3 3d f7 e4 f2 3c
       0.17083423 0.031148203 0.119096264 0.029650195
000070 8c 4f 47 3d fa 3e 83 bd 21 94 1a be 48 16 9e bb
       0.048659846 -0.06408496 -0.15095569 -0.0048244335
000080 8c b3 87 bd 7b c7 f7 3d 38 38 0d be c5 4e 11 3e
       -0.06626043 0.12098595 -0.13790977 0.14190204
000090 90 52 8e bd 1a df 1f be d5 3d f3 ba 69 28 34 3d
       -0.06949341 -0.1561245 -0.0018557856 0.04398385
0000a0 6f b9 da 3d 0f ab 17 be 6a fe ea bc fc f0 cb bd
       0.106799 -0.14811347 -0.028685767 -0.099580735
0000b0 54 31 4f 3d 9a 98 1c 3e 6a ae 41 3d c5 f4 8b bd
       0.050584152 0.15292588 0.047285475 -0.068337955
0000c0 a3 18 da bd 67 1e 14 3b 8d 2e 28 3e 50 04 4a 3d
       -0.1064923 0.002260113 0.16424008 0.04932052
0000d0 bd ba 9a bd 62 00 c9 3d 47 eb 23 bb 07 51 e7 bd
       -0.07555149 0.09814526 -0.0025012062 -0.112947516
0000e0 d2 27 c8 3d da ab d2 3d 95 88 2e bd c2 1f 2e 3d
       0.0977322 0.10286684 -0.042610724 0.042510755
0000f0 91 5a 99 bc e3 28 37 3d bb 4b cd bd 3b 62 d6 3d
       -0.018719943 0.044716727 -0.1002421 0.10467955
000100 af 74 85 3d 1d 11 e3 bd 17 44 7c 3d 47 3a b2 3d
       0.06516396 -0.110872485 0.061588373 0.08702522
000110 55 49 10 3e c9 89 ac bd 9f 5b 3f bd 94 a1 f5 bd
       0.14090474 -0.08424718 -0.046718236 -0.11993709
000120 61 a6 93 bb 3a c2 20 bd 84 51 a9 bd 88 d5 86 bd
       -0.004505918 -0.03924773 -0.08267501 -0.065836966
000130 ca 2b 50 bd 01 37 a1 bd 55 ab 12 3c 6c b7 a0 3d
       -0.05082301 -0.07871819 0.008951982 0.07847485
000140 10 7f be bd 3b 60 ff 3d 05 37 c5 3d de c2 3a bc
       -0.09301579 0.124695264 0.09629635 -0.011398999
000150 38 da 1f be 9b a3 0d be 8d 4b 85 3d 98 8b d8 bd
       -0.15610588 -0.13831942 0.06508551 -0.105735004
000160 4b 6d 45 3d f0 5a 67 bd a5 35 9b 3d 5d 0a 91 bd
       0.048199933 -0.05648321 0.07578591 -0.07082055
000170 2f e8 ba 3d 38 ae b9 bc 09 18 f7 bb a3 85 16 be
       0.09126317 -0.022666082 -0.007540707 -0.14699416
000180 a6 6d 21 3e bc c1 73 bd e3 53 d6 3c 99 a4 d5 3d
       0.15764484 -0.05951093 0.026163047 0.10431785
000190 cd cb f6 bd 22 32 2a bd 70 b4 de bd e9 39 2e be
       -0.12050591 -0.041551717 -0.108742595 -0.17014278
0001a0 ee d0 82 3c 1e bf 16 be 10 e1 99 3d 53 e2 79 bc
       0.015968766 -0.14721343 0.075136304 -0.015251714
0001b0 28 ca f7 3c af 86 a4 3d 6c 2c f6 bc dd 44 0e be
       0.030247763 0.08033501 -0.030050479 -0.13893457
0001c0 12 bd 46 bd 6f 84 14 3e 99 96 bc 3b 69 40 1b 3e
       -0.048520155 0.14503644 0.0057552573 0.1516129
0001d0 7f bd 24 be 13 7b 8d 3c df c9 93 bd 42 e9 6c bb
       -0.16087912 0.0172706 -0.07216238 -0.0036149775
0001e0 a4 be df bd 9c 84 fd bc 12 ea 2a be ff 40 2a be
       -0.10925034 -0.030947022 -0.16690853 -0.16626357
0001f0 fa 19 85 bd 66 07 63 bd 93 59 d9 3d 7f fa 17 3d
       -0.06499095 -0.055426978 0.10612788 0.037104126

model.1.weight f4 [128]
000000 4d e0 41 3f c5 3e 87 3f 2c 64 5f 3f e4 9f 44 3f
       0.7573288 1.0566031 0.87262225 0.76806474
000010 66 98 4a 3f 51 d2 66 3f 75 8b 6a 3f 16 43 58 3f
       0.7913879 0.9016467 0.91619045 0.84477365
000020 42 38 91 3f f3 bc 84 3f 5c ac 29 3f 42 15 94 3f
       1.1345294 1.0370163 0.66278625 1.1568987
000030 21 05 90 3f d9 4b 26 3f 04 05 61 3f 89 fe 91 3f
       1.1251565 0.64959484 0.8789828 1.1405803
000040 68 fb 53 3f 35 bd 35 3f ef 7e 58 3f cf 92 43 3f
       0.8280549 0.7099183 0.84568685 0.7639589
000050 68 cb 89 3f 4e 72 4c 3f 5a c0 75 3f 81 2d 58 3f
       1.07652 0.79861915 0.9599663 0.84444433
000060 44 70 8b 3f d6 f5 38 3f bc 46 87 3f 53 b5 5e 3f
       1.0893636 0.72250116 1.0568461 0.8699543
000070 56 41 9d 3f 9c 5a 92 3f 42 5c 3e 3f f6 95 73 3f
       1.2285564 1.1433902 0.74359524 0.951507
000080 5c a6 80 3f d6 3e 50 3f 39 d4 84 3f 39 23 24 3f
       1.0050769 0.8134588 1.0377265 0.64116246
000090 3c ad a7 3f 17 37 30 3f 23 46 8a 3f e7 26 98 3f
       1.3099742 0.6883406 1.0802654 1.1886872
0000a0 96 b1 53 3f f3 f2 58 3f d7 a9 98 3f 00 bc 72 3f
       0.8269285 0.8474571 1.1926831 0.94818115
0000b0 7a 2d 9e 3f 57 b1 9b 3f ea 90 2d 3f 0e f3 6d 3f
       1.2357628 1.2163495 0.67799246 0.92949
0000c0 6c 4c 38 3f 46 e4 89 3f 00 7f 9b 3f fe d1 97 3f
       0.7199161 1.0772789 1.2148132 1.186096
0000d0 0b 79 9a 3f 2a 62 92 3f 9a d4 8c 3f 60 9d 40 3f
       1.2068189 1.1436207 1.1002381 0.75240135
0000e0 98 91 75 3f 18 e3 4c 3f 40 45 34 3f 3a cb 63 3f
       0.95925283 0.8003402 0.7041817 0.88981974
0000f0 63 4a a0 3f 56 78 76 3f b7 ec 60 3f a8 40 8e 3f
       1.2522701 0.9627737 0.878612 1.1113482
000100 0e 75 7f 3f c8 78 51 3f 3e 0a 79 3f b5 63 80 3f
       0.99787986 0.8182492 0.97281253 1.0030428
000110 e6 f6 4d 3f 09 e5 8f 3f 09 6d a6 3f 80 06 87 3f
       0.8045486 1.1241771 1.3002025 1.0548859
000120 3a 1e 8b 3f 9e a1 4a 3f d2 df 89 3f a5 57 65 3f
       1.08686 0.7915286 1.077143 0.8958686
000130 d3 c4 3e 3f 33 78 a4 3f c7 5c 43 3f 05 a8 91 3f
       0.7451908 1.2849182 0.7631344 1.13794
000140 5a 62 ae 3f 3d 07 3e 3f 06 ba 60 3f 2f 87 57 3f
       1.3623765 0.74229795 0.8778385 0.8419065
000150 34 80 62 3f be e8 48 3f 9b 8a 8d 3f 70 f5 46 3f
       0.8847687 0.78480136 1.1057924 0.7771826
000160 43 08 8b 3f 3b e8 81 3f dc 01 5c 3f b6 3a 81 3f
       1.0861896 1.0148996 0.8594034 1.0096042
000170 70 51 91 3f a5 be a5 3f fe 68 92 3f 48 07 73 3f
       1.1352978 1.2948805 1.1438291 0.94932985
000180 d7 c5 82 3f 06 33 22 3f 20 a0 74 3f 82 a6 59 3f
       1.0216626 0.63359106 0.9555683 0.85019696
000190 6c de a4 3f 41 56 31 3f 78 07 37 3f f2 d4 53 3f
       1.2880378 0.6927224 0.7149577 0.82746804
0001a0 c3 e4 9b 3f 6b c2 91 3f 0e 7c 6d 3f f4 45 89 3f
       1.2179188 1.1387457 0.9276742 1.0724473
0001b0 a0 7a 6f 3f c0 e4 74 3f 2f e9 62 3f cd 12 8c 3f
       0.93546486 0.95661545 0.8863706 1.0943238
0001c0 37 c3 85 3f 54 28 8d 3f ad 81 7f 3f 22 c3 87 3f
       1.04502 1.1027932 0.99807245 1.0606425
0001d0 e5 ba 86 3f a3 d4 3d 3f d1 5e 69 3f 76 8c 8c 3f
       1.0525786 0.7415258 0.91160303 1.0980365
0001e0 3d a7 6a 3f 21 90 ab 3f 46 1c 93 3f 6a da 30 3f
       0.91661435 1.340336 1.1493003 0.69083273
0001f0 06 59 a5 3f 07 a1 6a 3f 33 bc 85 3f 0f 8e 95 3f
       1.2917793 0.9165196 1.0448059 1.1683978

model.1.bias f4 [128]
000000 a7 60 ed be 47 a1 11 be 5d 6a 01 bf 1c c5 ad be
       -0.46362802 -0.14221679 -0.5055292 -0.33939445
000010 ae 61 91 bd d6 eb 4a be f5 41 b7 be 46 66 12 bd
       -0.07098709 -0.19816527 -0.3579251 -0.035742067
000020 bb d2 b5 be 90 23 b5 3c 6f 61 0c bf 34 48 e2 be
       -0.35512337 0.022111684 -0.5483617 -0.44195712
000030 86 b6 2f bf 8a 92 6b bd 48 27 62 be dc b0 a6 be
       -0.68637884 -0.057512797 -0.22085297 -0.32556808
000040 25 56 8c be fa c5 03 bf ef db 3b bd 10 8e a5 be
       -0.27409473 -0.51473963 -0.045864042 -0.32334948
000050 24 3e 80 be 6b 22 10 3c c0 d7 64 bd 27 8f 13 bf
       -0.2504741 0.008797268 -0.055869818 -0.5764031
000060 c7 69 ab be f9 f8 23 bf f5 f6 90 be e2 a5 40 bb
       -0.3347914 -0.6405178 -0.28313413 -0.002939575
000070 f5 28 a0 be d8 32 87 be de 46 d8 be 69 74 20 be
       -0.31281248 -0.26405978 -0.42241567 -0.15669407
000080 5c d7 5f be df 44 fb bc e3 58 ab be 3c 37 73 be
       -0.21859497 -0.030672489 -0.33466253 -0.23751539
000090 5c 93 be be bc cf f3 be 31 f6 b3 be 9c 67 2a be
       -0.372218 -0.47619426 -0.35148767 -0.16641086
0000a0 01 de 17 be 6b 29 aa 3c 0f f3 c0 be 8a cf 4f be
       -0.14830782 0.020771703 -0.3768544 -0.20294014
0000b0 2c a8 b1 be 13 39 7d 3d 8c 84 b0 be 3d 9b 9f 3c
       -0.34698617 0.06182201 -0.34476125 0.019483203
0000c0 df 1c 60 bd b4 15 a5 be 29 7a 89 be d0 22 86 be
       -0.054715034 -0.3224312 -0.26851013 -0.26198435
0000d0 e2 21 25 be 6d b3 13 bd 07 9d 9f be d8 76 90 be
       -0.16126207 -0.036059786 -0.3117449 -0.2821567
0000e0 23 e2 b1 be 40 60 c9 be d5 a1 1d bf fd 85 71 be
       -0.3474284 -0.39331245 -0.6157506 -0.23586269
0000f0 75 ef 8c be 6d 4f 76 be 2a e1 ae be a2 f5 29 be
       -0.2752644 -0.24053736 -0.34156162 -0.16597608
000100 1c c1 71 be 1e 1d c7 be bd a4 66 be dd 78 85 bd
       -0.23608822 -0.38889402 -0.2252378 -0.065171935
000110 a2 e6 01 bf 97 2a 86 be 1d 7c 7e be fb 9d 6e be
       -0.5074254 -0.26204368 -0.24852033 -0.23302452
000120 02 01 43 be 8a b1 77 be 8f 59 82 be a3 74 47 be
       -0.19043353 -0.2418882 -0.25458953 -0.19478087
000130 be 56 80 bd a3 94 6b bd 90 62 a6 bc d8 8c 52 be
       -0.06266545 -0.057514798 -0.02031067 -0.2056154
000140 e7 2b 3e 3d cc f7 f4 be dc 6c e3 bb 7d c1 0c be
       0.046428587 -0.47845304 -0.0069404673 -0.13745685
000150 9a 12 78 3c 7e f4 21 3d 1c 09 fc 3c 11 d6 17 bf
       0.015141154 0.039539807 0.030766062 -0.59311014
000160 82 d3 43 be 3b d2 85 be 8b 1e 1f 3d cc c3 bd 3c
       -0.19123653 -0.26136956 0.038847487 0.023164652
000170 d5 eb 60 3e c8 5e c9 bc 99 1f 9b be 1b 0b 9d be
       0.21964963 -0.024581328 -0.30297545 -0.30672535
000180 3c 6c 80 be 04 f6 0b bf ed 27 03 3d d7 95 ac be
       -0.25082576 -0.54672265 0.032020498 -0.3370807
000190 73 a6 91 be 24 1b c4 be 65 83 5f be c1 c0 70 be
       -0.28447303 -0.38301957 -0.21827467 -0.2351103
0001a0 42 41 4f be e2 82 36 bf 44 4c 24 3d 86 f9 05 bf
       -0.20239738 -0.7129346 0.040111795 -0.5233387
0001b0 12 2b 1c bd ef c5 d9 bd 04 77 89 bb a7 e9 7b be
       -0.038127013 -0.10633456 -0.004195096 -0.2460085
0001c0 ec 05 98 be 15 5d c0 be 69 c4 cb bd 3a cd ae be
       -0.29692018 -0.37571016 -0.09949572 -0.3414095
0001d0 0f b1 88 be fd 85 b3 be ef 05 b2 bd 85 c8 3e 3e
       -0.26697585 -0.35063162 -0.08692538 0.1863118
0001e0 fb 27 6c be 8b 17 b1 be 3b 7d 56 be 03 31 c0 be
       -0.23062126 -0.34588274 -0.20946209 -0.37537393
0001f0 77 70 05 3d 3d e6 d2 be 94 43 c1 be db 20 ba be
       0.032577958 -0.41191283 -0.3774687 -0.36353192

model.1.running_mean f4 [128]
000000 21 1d e8 bd 2b 7e 76 be c7 90 d8 3e 86 64 af 3b
       -0.11333681 -0.24071567 0.42297956 0.0053525595
000010 2c 75 41 3f 64 81 8f 3e 30 d4 06 3e 01 8e cf bc
       0.75569415 0.28028405 0.1316688 -0.025336267
000020 ee 3b b8 3d 15 0a e2 3d 10 94 0a be e4 b8 3c 3f
       0.08995806 0.11037079 -0.13533044 0.7371962
000030 65 3c b4 3c fb 1e 84 3e bf 4d 86 be 38 4b 4a 3e
       0.022001455 0.25804886 -0.2623119 0.19755256
000040 5d 5f 01 bf f6 38 8a 3d 46 00 33 bf 9c fe 83 bd
       -0.5053614 0.06749146 -0.6992229 -0.06445047
000050 f4 9b 94 be 06 48 b0 3e e7 af c3 bd ee d9 8b bb
       -0.29025233 0.3442995 -0.09555035 -0.0042679226
000060 3c 6d 1f 3f 55 d3 a2 bd 23 4c cd 3e 81 35 70 bd
       0.62276053 -0.07950465 0.4009715 -0.058644775
000070 20 29 c9 3e 2b a7 83 be a8 53 95 bd 71 de 22 3d
       0.39289188 -0.25713477 -0.07291347 0.039762918
000080 00 0b b5 be a9 8c 35 bd 96 b6 83 be 77 02 65 3d
       -0.35359955 -0.044323597 -0.2572524 0.055910554
000090 bf 69 41 3d 62 b0 f4 be 7f ce a0 bd 20 d6 ba 3d
       0.047219988 -0.4779082 -0.07851886 0.09122872
0000a0 02 cd a1 3e ee 07 7a be f2 a1 75 3e 75 53 d8 be
       0.3160172 -0.24417087 0.23987558 -0.42251173
0000b0 4d bf c9 3e 15 01 7a 3e b7 23 c2 bc 08 49 27 3d
       0.39403763 0.24414475 -0.02369867 0.040841132
0000c0 8a ac e5 3d fb 1f 02 be 6d 03 19 3d d3 f7 97 be
       0.1121455 -0.12707512 0.037356783 -0.29681262
0000d0 f3 98 e4 bd 76 06 34 3d 22 d7 0b bd ff 38 56 bc
       -0.11161985 0.043951474 -0.034140714 -0.013075112
0000e0 a9 4b f3 3d 5e a3 a8 be 86 da cd bb 52 c1 50 be
       0.118796654 -0.3293714 -0.0062821535 -0.20386246
0000f0 7f 0f 69 be c5 7f d8 be 29 17 25 bf 47 a1 f0 3d
       -0.22759818 -0.4228498 -0.64488465 0.11749511
000100 8a bc 63 bc cd 33 17 bf 00 97 a2 3e d7 6d 93 3e
       -0.013899932 -0.59063417 0.3175583 0.2879474
000110 45 a4 a2 bf f5 31 8d be 80 91 2a be 0b df c7 bd
       -1.2706381 -0.27577177 -0.16657066 -0.09759339
000120 c9 42 97 3c e2 23 8f 3e fc b8 cf 3d 50 ee e4 bd
       0.018464463 0.27957064 0.10142705 -0.11178267
000130 91 a2 23 bf 6f 0a 64 be f9 0c 85 be 1d 79 9e 3c
       -0.6391993 -0.22269605 -0.2598646 0.01934486
000140 2a 49 29 bd 38 30 45 bf 6f 68 20 be 1b 2c 65 be
       -0.04132954 -0.770267 -0.15664838 -0.22380106
000150 7d 79 83 be 47 c1 b5 3c 90 49 5c 3e 7a 82 67 3e
       -0.25678626 0.022186888 0.21512437 0.22608367
000160 f2 26 22 3d f0 19 4e bf 60 63 08 be bf fa 85 3c
       0.039587922 -0.8050833 -0.13319159 0.016354917
000170 04 81 0c 3d c8 6e 76 bd b5 43 13 3e 8f 37 16 bf
       0.034302726 -0.060164243 0.14381297 -0.58678526
000180 6b d2 42 3e 70 b7 e8 bd 5a e7 f5 3d a5 dd 89 bd
       0.1902558 -0.11363113 0.120070174 -0.067317285
000190 92 1a 8c bc 3e 41 28 bf 13 00 a5 be d3 49 aa be
       -0.017102513 -0.6572455 -0.3222662 -0.33259448
0001a0 7b 5b f6 bd 24 25 38 be 5b 25 bd 3d 87 54 e0 bc
       -0.12029167 -0.17982918 0.092356406 -0.027384056
0001b0 a2 b9 96 bd e9 48 e8 3e 9d 93 4a 3e fd 0e 8c bd
       -0.073596254 0.45368126 0.19782872 -0.06838796
0001c0 5a 91 b1 3d f0 3c 27 3f 0f 22 b8 3d 06 f2 8a 3e
       0.08670302 0.6532736 0.08990871 0.27137774
0001d0 87 3f aa bd b5 3d a9 be 8f ca bc be db 7b f5 bc
       -0.08312898 -0.3305489 -0.3687329 -0.029966285
0001e0 60 5a 1c be ef 6e 12 bc a1 9f cd bc 19 50 08 bf
       -0.1526885 -0.008937581 -0.025100531 -0.5324722
0001f0 e6 55 ad bd 33 9c 5f bf 74 06 a0 bd b4 d2 33 bc
       -0.084636495 -0.87347716 -0.07813731 -0.0109755285

model.1.running_var f4 [128]
000000 2d 26 5f 3d 41 a4 b9 3d 62 77 b5 3e 4d 71 87 3e
       0.054479767 0.09064532 0.35442644 0.2645363
000010 48 d3 11 3d 3d 50 87 3d 7c d9 be 3e 4a 49 bb 3d
       0.035601884 0.06607101 0.37275302 0.09144838
000020 26 92 06 3e fb 37 97 3d 55 01 1f 3d b7 b8 8c 3d
       0.13141689 0.07383724 0.03881963 0.06871169
000030 35 bf 30 3f 77 32 8c 3d e6 4e 9d 3d 77 5e c8 3d
       0.6904176 0.06845563 0.07681064 0.09783643
000040 72 28 43 3d b1 20 3a 3d 8f 30 c8 3d ed ea 85 3e
       0.047645994 0.045441333 0.09774887 0.26155797
000050 13 93 a9 3d a3 47 d2 3d 00 73 78 3d 41 40 8b 3a
       0.08280005 0.1026757 0.060656548 0.0010624008
000060 e6 63 87 3d 5b 32 91 3b 88 80 a1 3d 0d 06 ca 3d
       0.06610851 0.0044310517 0.078858435 0.09864435
000070 6e f9 c6 3d cc 12 87 3d 02 bf 0b 3d a7 d6 9a 3d
       0.09715544 0.06595382 0.034117706 0.07560473
000080 03 7a c7 3d cd 22 72 3d ed 00 03 3e f2 1f 1b 3c
       0.09740069 0.05911522 0.12793322 0.009468066
000090 15 e3 c0 3d 83 ee 98 3d 39 68 0e 3e 7d 5b c8 3d
       0.094183125 0.074673675 0.13906945 0.09783075
0000a0 bb 7c 67 3d b9 42 cc 3d 93 bd b5 3d b0 50 61 3d
       0.056515437 0.09973664 0.08874049 0.05500859
0000b0 8b eb c3 3d 5f 21 b2 3d a9 6e 48 3d 84 d3 f8 3d
       0.09566411 0.08697771 0.04893366 0.121497184
0000c0 8f d3 4f 3d b6 94 02 3e 3f b0 85 3d ff a6 72 3d
       0.050738867 0.12752041 0.06527757 0.05924129
0000d0 d0 4a c1 3d 54 2f a1 3d b6 c1 fe 3d 26 93 2e 3e
       0.094380975 0.07870355 0.12439291 0.1704832
0000e0 c2 c7 2a 3e c6 9a 54 3e 10 ba c9 3b 29 92 75 3d
       0.16677764 0.20762166 0.0061562136 0.059953842
0000f0 26 82 8f 3d 57 4e 86 3d 6a cc 64 3d 9e f7 a9 3d
       0.07007246 0.06557911 0.055859007 0.08299182
000100 b6 a0 7a 3d 19 3f 18 3e 60 aa 8c 3d b7 d3 cf 3d
       0.061188422 0.1486782 0.06868434 0.10147803
000110 c5 2d 68 3b 88 79 8c 3d ef 5d af 3d cd 00 67 3d
       0.0035427671 0.06859118 0.08562838 0.056397248
000120 09 5a 8b 3d 92 4c 90 3c 1c 99 98 3d 4e 6d 98 3d
       0.06804282 0.017614637 0.07451078 0.07442723
000130 ee 41 46 3d f0 65 a1 3d 8c 0a da 3d 3f d7 b3 3d
       0.04840272 0.07880771 0.10646543 0.08781289
000140 5f bf b2 3d be ac 1a 3d 5b 7b d7 3d 43 09 3b 3d
       0.087279074 0.037762396 0.10521575 0.04566313
000150 ff 34 bc 3d 22 bd 4b 3d d3 77 91 3d 2c 8f 08 3b
       0.09189796 0.049740918 0.07102933 0.002083729
000160 19 33 b6 3d c4 3e 0e 3e 9c e1 e7 3d 5a 65 8a 3d
       0.08896465 0.1389113 0.113223284 0.067576125
000170 26 eb 9e 3d a5 51 91 3d 63 e4 9d 3d 5e 6a 53 3d
       0.07759695 0.070956506 0.07709577 0.05161511
000180 e2 09 9f 3d 7c c9 71 3c 72 68 ed 3d 23 3d a4 3e
       0.07765557 0.01475751 0.11592187 0.32077894
000190 cb 87 bc 3d e0 7c 77 3c a1 b5 72 3d 6e 8c 01 3c
       0.09205588 0.015105456 0.059255246 0.007907016
0001a0 a3 17 b9 3d 85 7a 17 3f 24 1a 93 3d 9a b3 86 3d
       0.090377115 0.59171325 0.0718272 0.06577225
0001b0 cd 4d 7b 3d 01 6a 5e 3d 19 03 92 3d ae 3e 9e 3d
       0.061353493 0.054300312 0.07129497 0.07726799
0001c0 11 9d 92 3d 89 d3 8a 3d 6b a3 ce 3d f0 e1 b2 3d
       0.07158864 0.067786284 0.10089763 0.087345004
0001d0 bc 0c ac 3d 2a 69 02 3e 8d 41 d1 3d d1 02 a3 3d
       0.084008664 0.1273543 0.10217581 0.079595216
0001e0 cc 2b 6e 3d f2 86 b5 3d 6e 45 ae 3d a2 00 29 3d
       0.058147237 0.088636294 0.085093364 0.04126037
0001f0 eb f6 ac 3d 82 f9 ba 3d ce db 10 3e c0 69 03 3e
       0.08445533 0.09129621 0.14146349 0.12833309

model.4.weight f4 [64, 128]
000000 8f 6b 8f 3d 8e d8 76 bd 27 6d 5b 3c b1 62 56 bc
       0.07002937 -0.060265116 0.013392723 -0.013085053
000010 05 68 68 3d df e8 03 be 75 e0 68 3d 45 6f a2 3d
       0.056739826 -0.12881802 0.056854684 0.07931379
000020 48 64 b3 3d ef 3b c6 3d d9 c9 05 bc ef db bf 3c
       0.087593615 0.096794 -0.0081658 0.023420302
000030 8b 65 64 3d ae 0e 71 3d 68 b5 03 3e 52 4f ad bd
       0.0557609 0.05885189 0.1286217 -0.08462395
000040 f7 15 1a 3d 8e 3c c7 bd bb 32 e4 3d d7 cb a8 3d
       0.037618604 -0.09728347 0.111424886 0.08242004
000050 a1 13 a9 bd 00 4b 9b 3c 63 4f 35 bc a2 8d b6 3c
       -0.08255697 0.018956661 -0.011066291 0.022284333
000060 fd dd d9 3b cd 81 5a 3c 5c c3 0f be 4e 57 82 3b
       0.0066487775 0.013336611 -0.14039367 0.0039776927
000070 36 80 4b 3d 88 42 ce bc 87 1a 89 3d bf 08 8c bd
       0.04968282 -0.025178209 0.06694513 -0.06837606
000080 4b 5b af bd 23 50 68 be e2 26 67 3c 08 89 f7 bc
       -0.085623346 -0.2268682 0.0141083915 -0.030216709
000090 3e c9 10 be 01 28 87 3d 17 b6 61 3d 20 ad 06 3d
       -0.14139268 0.06599427 0.055105295 0.03287995
0000a0 16 5f 0b 3d 63 6e 98 3d 56 81 0c 3c 5e 47 f8 3c
       0.034026228 0.074429296 0.008575758 0.030307468
0000b0 85 31 33 3d 9f 14 51 3d d2 43 d0 3d a6 57 8e 3d
       0.043748397 0.051045056 0.10169186 0.06950311
0000c0 25 c4 d8 3c 1d 4a 01 bd 5f ee 69 3d a1 6b 00 3d
       0.026460717 -0.03156482 0.057112094 0.031352643
0000d0 9d d5 b8 3d 76 e3 3f be 79 39 2e bd 14 e8 d4 3d
       0.090251185 -0.18739113 -0.04253528 0.10395828
0000e0 d9 6a 57 3c 3c c7 5e be 64 1f b5 3c 24 55 c3 bc
       0.013148033 -0.2175569 0.022109695 -0.02384431
0000f0 a7 13 2f bd 89 1f 38 3b dc 54 21 be f0 4c 69 bd
       -0.04274335 0.0028094968 -0.15755028 -0.05695814
000100 32 35 25 ba ec 5e fd bd 76 47 2d be 72 b7 cb 3c
       -0.0006302177 -0.123716205 -0.16921791 0.024867747
000110 aa dd e2 bd 94 7e 6e bd f9 10 81 3c 05 62 5c bc
       -0.11077435 -0.058226183 0.015755164 -0.013451104
000120 b6 fc c1 bb 2a d2 92 bd 5a 7c 11 be 29 80 d8 bd
       -0.005920018 -0.07168992 -0.14207593 -0.105713196
000130 46 2a 49 3d d4 49 0f be 1a 4f 0f bc dd e1 45 bd
       0.04911258 -0.13993007 -0.008746887 -0.048311103
000140 b2 7e 42 bc 99 de ce bc e6 05 5c 3d 19 e0 5d be
       -0.011871027 -0.025252627 0.053716563 -0.21667518
000150 4c 82 8e 3a 81 b9 42 3d 12 fd ca 3c e5 b8 30 3d
       0.0010872572 0.04754019 0.024778876 0.04314508
000160 ca 0d 28 bd a7 f2 f4 bd 31 c3 b9 3d 41 69 89 bd
       -0.041028775 -0.11960345 0.09070433 -0.06709529
000170 55 6b 93 bd ca fd 12 be f5 02 81 bd 42 53 4e be
       -0.07198206 -0.14354625 -0.06299392 -0.20148948
000180 e6 04 62 bd 04 4d 39 be 1d 51 91 3d ab 9d e5 3c
       -0.055180453 -0.18095785 0.07095549 0.028029284
000190 9d 02 08 be 4a 32 2c be 4c 65 3b 3c d9 93 30 bd
       -0.13282247 -0.16816059 0.011437725 -0.04310975
0001a0 12 c9 20 bc 2a 1c f6 3d 27 83 cb bd 69 18 89 bb
       -0.009813564 0.120170906 -0.09937125 -0.004183818
0001b0 58 1c 5e be 24 58 02 be 5c 2f 7d bd d4 67 55 be
       -0.216905 -0.12728935 -0.061812744 -0.20840389
0001c0 8e 9f 2e be 64 83 1d bc 81 da 48 3d c6 fd 98 3d
       -0.17053053 -0.0096138455 0.049036507 0.074702784
0001d0 77 31 3a be df c9 27 be e6 2c 9a bc d8 a9 0c bd
       -0.18182932 -0.16385601 -0.018820237 -0.034341663
0001e0 6d 16 91 bc 50 cb 5c be 74 ac 17 3d a3 41 81 3c
       -0.017710889 -0.21561933 0.0370297 0.015778368
0001f0 82 21 41 3d db c7 d5 bc 85 d0 0f 3d ad 6c 5d 3b
       0.047151096 -0.026096275 0.03511097 0.00337867
000200 00 c6 99 3c 49 ed fd bb 5b 0e 3d 3d c1 a3 71 bc
       0.018771172 -0.007749234 0.04615627 -0.014748515
000210 68 f4 45 bd 00 99 41 3d d3 39 9b bd 28 2d 85 3e
       -0.048328787 0.047265053 -0.075793885 0.26011014
000220 88 6a 16 3b 20 1b 00 ba ab 42 09 3d 09 0d 72 3d
       0.0022951681 -0.00048868544 0.033510845 0.059094463
000230 ca 55 18 bd f9 d1 a5 3d dc 84 96 bd c4 11 18 3d
       -0.03719119 0.0809669 -0.0734956 0.037126318
000240 ce bd 6d 3c ac ef a9 bc da 73 1c bd 59 31 9f bd
       0.014510585 -0.020744167 -0.038196422 -0.07773084
000250 b7 91 41 be 6d 32 b7 3d 3d 75 37 bc 44 fc 4d bc
       -0.18903242 0.08945165 -0.011197385 -0.012572352
000260 15 21 19 bc 2d 74 65 3d 62 7a 62 3d dd cf dd 3d
       -0.009346266 0.056018997 0.055292495 0.108306624
000270 42 8c 9a bc 5a 89 b9 be 87 57 56 3d 5e 62 80 bc
       -0.018865708 -0.36237603 0.052329566 -0.015671905
000280 18 df de 3b b5 8d d8 bc 88 58 91 3d d7 fd 47 bd
       0.006801497 -0.026434759 0.07096964 -0.048826065
000290 8f 1a 3e bd f6 9d a1 3d 95 9f b7 3d 50 10 28 3d
       -0.046412047 0.07891457 0.08965985 0.04103118
0002a0 94 0b 40 bd 07 7f 96 3d e5 4a e2 bd 99 a9 7f bd
       -0.04688604 0.07348447 -0.11049441 -0.0624176
0002b0 55 39 22 be e0 48 47 bc 53 50 83 3d b8 f5 b6 3d
       -0.15842183 -0.012163371 0.06411805 0.08933586
0002c0 6e 0a 54 3c 0c c3 b9 bd 18 c5 9d be 64 b5 b9 be
       0.01294194 -0.09070405 -0.30814433 -0.36271203
0002d0 bb 72 5e 3b 79 b7 fd 3d f5 e2 f9 3c bf 7b f1 bc
       0.0033942896 0.1238851 0.03050373 -0.029477952
0002e0 7d 5c ff 3d 00 37 71 be e3 91 3a bd 4a c8 28 be
       0.124688126 -0.23556137 -0.045549285 -0.16482654
0002f0 9a bc b4 be 33 3a b1 be 57 5b 62 be ea 3c 01 bc
       -0.35300142 -0.34614715 -0.22105156 -0.007888058
000300 87 81 eb 3c 19 ec 87 be 36 2e 06 3e dd 79 c4 38
       0.028748287 -0.26547316 0.13103566 9.368707e-05
000310 3d db 9a 3b 8e a5 8e be 0d 9f a4 be 37 1b 8a be
       0.0047258423 -0.27860683 -0.32152596 -0.26973888
000320 66 0b 3f be fa e5 a1 3c 0c 3d e8 bd c5 24 80 3d
       -0.18656692 0.019762982 -0.11339769 0.06257013
000330 00 ac 84 3d 8c ba 14 be d6 1d ff 3c 01 09 3c 3d
       0.06478119 -0.14524287 0.031142157 0.045907024
000340 9e a1 a4 ba 0c 88 a1 be ad ac be 3d 43 0f a4 3d
       -0.0012560373 -0.31549108 0.09310279 0.080107234
000350 97 34 95 3d 67 a4 b9 3b 24 c6 05 3c 77 e2 9d 3d
       0.07285421 0.0056653502 0.008164916 0.0770921
000360 83 74 97 3c f0 48 c4 be d7 6b eb 3d 87 31 94 3a
       0.018488174 -0.38336897 0.11495178 0.0011306264
000370 36 0b bd be 4a 84 15 3e f6 aa 69 3c 2d f9 b9 be
       -0.36922616 0.14601246 0.014261952 -0.3632292
000380 ea 4c 65 bd 07 47 e4 3c d4 85 83 3c 03 1c 37 3e
       -0.055981554 0.0278659 0.016055025 0.1788178
000390 82 4f 00 bd 99 c6 04 be b8 8f 53 3d 2a b5 2e 3a
       -0.031325825 -0.12966384 0.051650733 0.0006664569
0003a0 64 10 b7 3d 4f 36 c0 3c eb e8 7e 3b bd 47 56 bc
       0.08938673 0.023463396 0.0038896154 -0.013078627
0003b0 d6 c4 1e 3d fc 9d a2 bd 5a 65 c1 bd dc c5 91 3c
       0.038761936 -0.079402894 -0.094431594 0.017794542
0003c0 45 fa 01 3e be 27 27 bd 1a 67 06 3e 0b a3 56 bd
       0.12693126 -0.040809385 0.13125268 -0.052401584
0003d0 cb 63 cf bd 2c ed a2 be 15 d7 e1 3d 32 35 dc be
       -0.10126456 -0.31821573 0.11027352 -0.43009335
0003e0 ec 61 bc be d4 1a 31 3c 50 f0 cf 3d 1d 08 38 3d
       -0.36793458 0.010809619 0.10153258 0.044929612
0003f0 71 f6 1e 3d 49 66 c6 be 7e dc ad bc 90 8f 3b be
       0.038809244 -0.38749912 -0.021223303 -0.18316483

model.4.bias f4 [64]
000000 0a 1b df bc 9b 2c 25 3d 9f cc 95 bd d0 ed 41 3c
       -0.027234573 0.040325742 -0.07314419 0.011836484
000010 8d 0f 07 bd e3 d6 2c bd 9d af aa 3c 50 6c 63 bd
       -0.032973815 -0.04219712 0.020835692 -0.055523217
000020 c2 41 4c bd 4f 8f 74 3b 0a a3 a0 bc 69 e7 6f 3d
       -0.0498674 0.0037316864 -0.019608993 0.0585703
000030 f6 b0 2c 3d c9 d6 8b 3b e0 ee a9 3d ef c1 22 3c
       0.04216095 0.0042675477 0.08297515 0.009933933
000040 c4 2d 99 bc 8f 55 96 bd 9e ca 52 bd 72 e2 7e bd
       -0.01869858 -0.07340538 -0.051462762 -0.062227674
000050 a2 68 87 3d d8 70 98 3d 1c bf d4 3b 91 d7 b2 3d
       0.06611754 0.07443398 0.0064925086 0.08732522
000060 84 d9 7b 3c 58 49 e5 3c 95 9f 92 3d 97 6d 74 3d
       0.015371684 0.027989075 0.07159344 0.059674826
000070 fc 4e 9e bd 30 3c 27 3d 5f 33 cb bb 7f 6d fc bc
       -0.07729909 0.040828884 -0.0062011923 -0.03081393
000080 8b 48 7b 3d 6e 7b 8b 3d 56 57 9f 3d e0 a5 10 bd
       0.06134848 0.06810652 0.0778033 -0.03531444
000090 7d 04 55 bd 00 77 94 3c 79 7e 1e bd 83 84 a7 3d
       -0.052006233 0.01812315 -0.038694832 0.081795715
0000a0 d8 d9 2b 3d 8d f0 89 bd 48 3f b6 bc 47 7a 3c bc
       0.0419558 -0.067353345 -0.022246972 -0.011503763
0000b0 bb 2b 21 bd 73 e0 83 bc 53 3b 51 bb 7c f6 06 3c
       -0.039348345 -0.016098237 -0.003192623 0.008237477
0000c0 85 57 51 bd 27 92 42 bd 5e e7 ef bc 6d ae fb 3c
       -0.051108856 -0.047502663 -0.02928513 0.030722821
0000d0 24 1a 80 3d 44 b2 ef bb 9c 65 c3 bc 51 5e 3a 3d
       0.06254986 -0.007314952 -0.023852162 0.045500103
0000e0 c1 15 5f ba ff b8 21 bd 45 26 a6 3d ac 2f 96 3d
       -0.00085100165 -0.039483067 0.08112768 0.073333114
0000f0 ee cc 1b 3c 5a b6 85 bc 3e 0d 82 ba 40 86 1f bd
       0.009509308 -0.016322304 -0.0009922159 -0.03894639

model.5.weight f4 [64]
000000 ae 96 d1 3e 51 19 cb 3e 47 fc a9 3e 08 d7 cc 3e
       0.40935272 0.39667752 0.33200285 0.40007806
000010 3a 2a de 3e ca 83 8d 3e 39 ae af 3e 2c a8 d0 3e
       0.4339159 0.2763961 0.3431261 0.40753305
000020 a7 27 bf 3e ca 6b d9 3e 27 23 a8 3e e4 c3 aa 3e
       0.3733494 0.4246505 0.3283932 0.33352578
000030 78 7e d1 3e 42 ea a0 3e 8e b6 e7 3e f1 f7 9f 3e
       0.409168 0.31428725 0.45256466 0.31243852
000040 98 99 cb 3e ae ef b9 3e 1f 5e cc 3e 4f 30 02 3f
       0.3976562 0.36315674 0.3991556 0.50854963
000050 37 b3 c0 3e e5 f6 be 3e 66 f7 b4 3e bf 11 db 3e
       0.3763673 0.3729774 0.35345 0.42786977
000060 09 79 b6 3e c7 34 d9 3e 2f c3 fa 3e bb d9 dd 3e
       0.35639217 0.42423078 0.48977038 0.43330178
000070 80 05 b5 3e 29 70 d8 3e bf 9c d8 3e 3b 63 b8 3e
       0.3535576 0.4227307 0.42307088 0.36013207
000080 9c b1 d8 3e e9 f4 c9 3e b0 d5 e2 3e 70 59 db 3e
       0.42323005 0.39444664 0.44303656 0.42841673
000090 1f bc ef 3e de 39 c3 3e 2c d9 d5 3e cb be ea 3e
       0.46823213 0.38130087 0.41767251 0.45848688
0000a0 b2 ab bf 3e 8b b7 c6 3e 6b 73 b5 3e 6c fc b7 3e
       0.3743568 0.38811907 0.3543962 0.3593477
0000b0 91 53 99 3e a4 fa 98 3e ca d5 ff 3e 4a dd c1 3e
       0.2994657 0.29878724 0.49967796 0.37864143
0000c0 fb be bc 3e 70 d0 b1 3e fb c2 ce 3e a0 c3 f7 3e
       0.36864457 0.34729338 0.40383133 0.48391438
0000d0 5d e2 e4 3e 55 d4 d0 3e f8 2c a8 3e ac 37 b9 3e
       0.4470395 0.40786996 0.32846808 0.36175287
0000e0 87 f7 d7 3e 6a 6a ef 3e 6d 4c db 3e 9a 75 d1 3e
       0.42181036 0.46760875 0.42831746 0.40910035
0000f0 c3 89 d9 3e 48 af dc 3e 32 22 bd 3e 66 26 c3 3e
       0.42487916 0.4310248 0.3694015 0.38115233

model.5.bias f4 [64]
000000 b4 50 1b bf cf 2b 0b bf 73 d2 17 bf 83 6b 0a bf
       -0.6067002 -0.5436372 -0.59305495 -0.540703
000010 f1 dd 13 bf bd 3a 27 bf 68 9b 16 bf 42 4b 0c bf
       -0.5776053 -0.65324 -0.5883088 -0.54802334
000020 ba 6c 21 bf 2d 38 16 bf 88 be 0c bf 91 46 ca be
       -0.6305653 -0.5867947 -0.5497823 -0.39506963
000030 b1 33 11 bf 72 35 1a bf 0d 7d 0a bf a4 c6 29 bf
       -0.567195 -0.602378 -0.5409706 -0.66318727
000040 e2 94 13 bf 08 ab 17 bf 70 a7 08 bf 34 15 c5 be
       -0.5764905 -0.5924535 -0.5338049 -0.3849274
000050 12 52 0c bf d5 97 16 bf dc 41 a1 be 00 d4 c2 be
       -0.5481273 -0.5882543 -0.3149556 -0.38052368
000060 08 bc 0a bf 1b ce 1e bf f1 84 f8 be 4a 47 06 bf
       -0.5419316 -0.6203324 -0.48538926 -0.5245253
000070 ec 15 18 bf 6e b3 12 bf 56 03 08 bf a4 98 0a bf
       -0.5940845 -0.5730504 -0.5313009 -0.5413916
000080 84 74 0f bf 81 13 0c bf 4a 09 0b bf d2 76 16 bf
       -0.56037164 -0.5471726 -0.5431105 -0.58775055
000090 ad 85 b8 be fa ea 15 bf e2 9a 16 bf 4d 8e 0e bf
       -0.36039487 -0.5856167 -0.5883008 -0.55685884
0000a0 eb 07 17 bf 24 2f 26 bf 7f e4 12 bf f3 7c 11 bf
       -0.58996457 -0.6491568 -0.5737991 -0.5683128
0000b0 46 73 28 bf 13 84 22 bf 6b da c9 be dd 4a 10 bf
       -0.65800893 -0.6348278 -0.39424452 -0.5636423
0000c0 f1 d3 05 bf 59 a7 24 bf bd df 10 bf 40 61 df be
       -0.5227652 -0.6431785 -0.565914 -0.43628883
0000d0 7c 59 09 bf 6c 9a 0d bf 28 92 0b bf 80 b3 e9 be
       -0.5365217 -0.55313754 -0.5451989 -0.4564476
0000e0 3a 7f 09 bf 2d 1f b0 be d5 67 09 bf 46 74 0e bf
       -0.5370976 -0.34398785 -0.5367406 -0.5564617
0000f0 d3 58 13 bf f0 41 16 bf b3 0f 17 bf 1b 33 15 bf
       -0.5755741 -0.5869436 -0.5900833 -0.58281106

model.5.running_mean f4 [64]
000000 32 0f 96 bf c7 55 ee bf 88 07 62 bf 43 88 d6 bf
       -1.1723387 -1.8619927 -0.8829274 -1.6760334
000010 4c 73 6b bf 8a 9f 32 bf 11 2f df bf 0b b2 d0 bf
       -0.91972804 -0.6977469 -1.7436239 -1.6304334
000020 9e 8a 45 bf 81 48 c1 bf 82 99 8e bf 42 38 06 c1
       -0.7716464 -1.5100251 -1.1140597 -8.388735
000030 8a 6f 1c c0 ae 97 f2 be 09 e0 9e bf c1 17 f3 be
       -2.4443078 -0.47381347 -1.241212 -0.4747906
000040 c5 d5 24 c0 a8 05 91 bf 1f 64 17 c0 80 e8 d2 c0
       -2.5755475 -1.1329851 -2.365486 -6.5908813
000050 f1 a6 23 bf da 4f 01 c0 91 d8 f2 c0 ec ac 1e c1
       -0.6392661 -2.0204988 -7.5889363 -9.917217
000060 d3 a0 b5 c0 08 23 7e bf 63 f4 0d c1 82 58 8d bf
       -5.675882 -0.99272203 -8.872165 -1.1042635
000070 7e d7 9b bf c3 bc b9 bf 4e 62 bf bf a5 18 3d bf
       -1.2175138 -1.451073 -1.4951875 -0.7386573
000080 c2 64 22 c0 0b 56 d7 bf 4d 2a 87 bf b7 a1 8a bf
       -2.5373998 -1.6823133 -1.0559784 -1.0830601
000090 c1 22 04 c1 46 9a 1c c0 3a 48 8b bf 8b 30 c2 bf
       -8.258485 -2.446916 -1.0881417 -1.5171064
0000a0 d7 21 f9 bf ba c0 99 bf 30 1e 15 bf 8e 3d 8f bf
       -1.9463452 -1.201194 -0.5824919 -1.119066
0000b0 35 82 34 bf f3 85 ec be 2f 4b 0f c1 79 d0 58 bf
       -0.7051118 -0.46195945 -8.955855 -0.84693104
0000c0 36 db 97 bf d8 3e 16 bf 06 ca 61 bf cb a1 d5 c0
       -1.1863773 -0.5868964 -0.8819889 -6.676
0000d0 a7 d9 00 c0 9e 03 ee bf 5a b8 c3 bf 86 85 0f c1
       -2.0132844 -1.8594854 -1.5290635 -8.9700985
0000e0 5d ff c3 bf 24 a6 06 c1 90 81 4b bf e5 95 4c c0
       -1.5312306 -8.415562 -0.7949457 -3.1966488
0000f0 07 0c 78 bf 83 b2 9b bf a5 22 7e bf 2a 25 94 bf
       -0.9689335 -1.2163852 -0.99271613 -1.1573842

model.5.running_var f4 [64]
000000 6c c4 e4 40 91 a0 40 41 67 b0 cc 40 7f fc 1c 41
       7.1489773 12.039201 6.3965335 9.811645
000010 0c 93 3b 40 95 7f 2d 40 01 14 3c 41 d0 b4 b8 40
       2.93085 2.710912 11.754884 5.772072
000020 64 35 8c 40 25 2d 8f 40 7b 0b 3a 40 c9 15 00 42
       4.3815174 4.474261 2.9069507 32.021275
000030 64 fe 23 41 18 fa ed 40 a0 91 ef 40 e5 47 31 40
       10.249607 7.436779 7.4865265 2.770013
000040 08 8a 54 41 34 20 85 40 ea 0a 41 41 10 71 7b 42
       13.283699 4.160181 12.065165 62.860413
000050 51 f5 6d 40 5a d0 28 41 ca 70 a3 42 74 1f a6 42
       3.718098 10.550867 81.72029 83.06143
000060 e5 a9 65 41 bc 54 c9 40 99 9d 81 42 bf 08 8c 40
       14.353978 6.2915936 64.80781 4.3760676
000070 7a 41 8d 40 d7 0a f3 40 60 9f 22 41 14 c1 0c 40
       4.4142427 7.595073 10.16391 2.1992846
000080 f3 c6 a8 41 64 6c c1 40 e0 66 87 40 59 59 60 40
       21.097143 6.0444813 4.231308 3.5054533
000090 2e 4b e8 42 df 62 8f 41 5f 69 54 40 9d 9a ed 40
       116.146835 17.923277 3.3189313 7.4251237
0000a0 5c 56 2a 41 66 34 7b 40 92 13 dd 40 f9 77 e1 40
       10.646084 3.9250731 6.908639 7.045895
0000b0 97 6a 34 40 69 37 73 40 07 93 a9 42 81 b9 84 40
       2.8190057 3.800257 84.78716 4.1476445
0000c0 9f 80 dc 40 2f 54 37 40 37 86 c0 40 ad 43 3c 42
       6.890701 2.8645132 6.0163836 47.06609
0000d0 8a e0 11 41 e8 ba 0c 41 4e e2 ad 40 cf 1e 00 42
       9.117319 8.795631 5.433875 32.030087
0000e0 1d a2 ea 40 2d 53 dc 42 c5 3d 09 40 4d 10 6d 41
       7.332289 110.16245 2.144395 14.81648
0000f0 06 b9 7c 40 76 ff 54 40 53 bd d2 40 6d 6e cc 40
       3.948793 3.328092 6.585611 6.3884797

model.8.weight f4 [1, 64]
000000 41 d5 f1 3c c1 9d 2e 3c d0 14 0b bc 96 63 39 bc
       0.029520633 0.010657729 -0.008488849 -0.011315247
000010 cb a9 f6 bb 01 09 76 bb c7 67 36 3c c2 c3 84 3c
       -0.007527565 -0.0037541988 0.011133141 0.016206626
000020 dc 34 24 3c 9a 52 a6 bc 5a 35 9f bb a5 ef cb 3c
       0.010022368 -0.02030306 -0.004858655 0.024894545
000030 7d a9 0e 3d af b0 40 3c e2 b3 d2 3b 23 28 9c 3c
       0.034829605 0.011760875 0.006430135 0.019062107
000040 ea b0 f0 3c 5d 1c d1 3b c3 25 9e bc 2a 16 cc bc
       0.029381234 0.006381555 -0.019305116 -0.024912912
000050 35 ec ae bc 29 b9 48 bc 51 89 7c 3c 75 82 99 3c
       -0.021352867 -0.012251177 0.015413598 0.018738965
000060 a1 ec a0 bb de ef 93 bc 79 d1 3e bd 22 53 7b bc
       -0.004911021 -0.018058714 -0.046586487 -0.015339645
000070 03 04 9a bb 42 ec 83 3c af 3b 36 bc d4 54 cf 3b
       -0.0047001853 0.016103867 -0.011122628 0.006327251
000080 f0 22 31 3c 4c f3 2c 3a 81 43 4b 3c c2 2b b4 bc
       0.010811552 0.00065975334 0.012406231 -0.021993522
000090 0f 4c 53 3c eb 3b 29 bc 95 b0 3b bd 65 9d d6 bb
       0.012896552 -0.010329227 -0.0458227 -0.0065495246
0000a0 a1 f7 fd 3a 88 f5 d0 ba dc f1 1a 3b 6e 93 f7 3c
       0.0019376167 -0.0015942315 0.0023642695 0.030221667
0000b0 30 96 94 bc 60 da 60 bc ef 48 c2 3c b6 f0 fc bb
       -0.018138021 -0.01372394 0.023716418 -0.0077191247
0000c0 9d d1 93 3b a1 b0 93 bc 33 01 8a bc 11 37 e4 3c
       0.004511072 -0.01802856 -0.016846275 0.027858289
0000d0 13 ac aa 3a b6 4d 4c bc 10 7a 2f 3a 06 0b f1 3c
       0.0013021253 -0.0124697 0.0006693909 0.029424202
0000e0 ac 09 ff 3b ad 17 c6 bc f7 11 2b ba a0 4d ee 3c
       0.0077831354 -0.024181211 -0.00065258093 0.029089749
0000f0 ae 88 12 bc 93 8f d7 3c 11 1a 7e bc ea 73 1b 39
       -0.00894372 0.026313579 -0.015509144 0.00014825133
